src/saved_models/agent_8.pth (torch, 542080 bytes, 8 tensors)

weight f4 [256, 6]
-0.0012775881 -1.5697998 -4.742615 -1.0924277 0.24473956 3.5612025 0.0053383387 0.61707884
-4.5193434 -0.7121473 0.37139904 -7.730102 0.040335033 0.78526527 -2.6461549 -0.64249915
0.2932392 5.782376 0.18766156 -0.26859346 -1.4231763 0.22793064 0.36993095 5.3924866
-0.5281674 -0.1769943 -0.78428894 -0.16044275 0.3425024 -6.0145535 -0.23702158 0.012142502
-4.4721017 5.1119757 -0.11723596 1.3148661 0.17082816 -1.6017351 -1.262579 0.3315472
-0.67637825 4.8417444 0.0008203301 0.33641028 -1.1152699 2.7459946 0.34199098 5.754572
0.009608989 0.63147956 0.2681304 -4.1451087 0.16991214 -10.655101 0.064792015 0.8836965
2.686674 1.2073984 -0.38709456 6.1361094 0.10545864 -0.06692302 -0.16805972 -1.3889803
0.10059371 -7.3186383 -0.32940894 -0.29135442 0.10814756 0.07095575 0.016546875 -0.39747742
0.012478036 0.37856212 -3.3749645 7.135233 -0.6427 5.7225823 0.009804963 0.2266134
-2.5008569 2.8589644 1.0191048 -8.530995 0.07207347 -24.350554 3.276522 -9.505309
-17.198555 6.7977066 -0.5200561 -0.37672368 0.4076132 0.061347917 0.2431561 -6.8973923
0.19412275 -0.40961263 -1.2735969 1.0400118 0.012982501 5.3542747 -0.12953794 0.13728523
-0.25731653 0.2613716 -0.2922826 -0.073029876 0.11524429 0.5114845 -1.311254 3.5417256
0.2913745 5.6791434 0.28642958 0.15070944 -1.845668 0.4414133 0.007894702 2.7145107
-0.0058762957 -1.0378383 2.3627324 -0.97659713 -1.6700426 -2.8961885 -0.23659228 -0.018842185
-0.081054986 -0.41369006 -0.016437853 0.34319928 -0.3952061 -0.39204887 -0.023301423 0.3855629
0.015015036 0.027414978 0.25374582 1.2167408 0.82444334 -0.78802127 -0.33153313 -1.8161677
-0.1576477 0.14417475 -0.25995642 0.052099675 -0.18249825 -0.3473272 0.1783797 1.8022606
-3.0479372 -3.8583841 -1.920612 4.909031 0.008815001 0.35378122 -5.168748 -7.803513
-0.16074537 7.0990295 -0.2784505 -0.09783131 0.39190757 0.40344888 -0.31698352 -0.25322628
-0.28727505 0.7382723 10.502346 1.8545035 0.20020865 7.724162 -0.69816345 0.3006655
0.5507858 -0.25150558 0.16367634 -5.4047923 -0.24189496 -1.9775466 -0.8015773 -1.3395152
-1.9229361 0.7894678 0.29954147 -1.3938698 -1.5361418 -0.49173623 0.105017126 1.7016048
0.012584261 -29.444666 1.8966745 -33.222004 -20.77454 0.032834653 0.044891745 -0.37865022
-29.295183 -3.9990609 0.19349204 1.1207739 0.00034328285 0.59897816 -1.7999978 1.4907185
0.092788614 6.338918 -0.38971815 1.163799 -3.1152658 -1.6218084 0.8469468 -2.4963248
-0.07007034 -0.9776047 12.59178 2.2019083 0.41894543 -6.7615848 0.009731985 1.831819
-6.198868 -5.7516055 -0.8666087 5.68561 0.020929752 -7.1590466 -0.28786448 -14.121347
-6.533253 0.5535556 0.09638046 -0.31549045 -0.9520877 2.679659 0.39206532 5.444076
0.06574568 0.8310877 -3.1324272 1.223368 0.18670309 5.357746 6.2484134e-05 0.30351844
-1.4605099 2.2134721 0.43266404 6.061336 -0.18321842 -0.35113695 0.24471605 -0.33189684
00000000: be74 a7ba 33ef c8bf 81c3 97c0 acd4 8bbf
00000010: 029d 7a3e beea 6340 3bed ae3b e1f8 1d3f
00000020: 769e 90c0 494f 36bf 0428 be3e ff5c f7c0
00000030: 5936 253d 2507 493f 9a5a 29c0 d37a 24bf
00000040: 7323 963e 3909 b940 5a2a 403e 1585 89be
00000050: a42a b6bf a666 693e 9767 bd3e 408f ac40
00000060: fb35 07bf fe3d 35be 29c7 48bf 1b4b 24be
00000070: 795c af3e 3977 c0c0 c9b5 72be 58f1 463c
00000080: 751b 8fc0 4e95 a340 6819 f0bd 884d a83f
00000090: 94ed 2e3e a805 cdbf 309c a1bf 8ec0 a93e
000000a0: 2027 2dbf 92ef 9a40 6c0b 573a f83d ac3e
000000b0: 2ac1 8ebf 60be 2f40 7119 af3e 7425 b840
000000c0: 056f 1d3c a5a8 213f 6348 893e bba4 84c0
000000d0: 73fd 2d3e 4b7b 2ac1 adb1 843d ef39 623f
000000e0: 78f2 2b40 088c 9a3f 4231 c6be 025b c440
000000f0: b3fa d73d f00e 89bd d917 2cbe 1bca b1bf
00000100: 1304 ce3d 4932 eac0 4aa8 a8be 682c 95be
00000110: 787c dd3d 4051 913d 508d 873c 2982 cbbe
00000120: ad70 4c3c e5d2 c13e 6bff 57c0 d453 e440
00000130: fd87 24bf 651f b740 ffa4 203c 580d 683e
00000140: 0a0e 20c0 46f9 3640 0772 823f f57e 08c1
00000150: 419b 933d efcd c2c1 89b2 5140 bf15 18c1
00000160: a496 89c1 d086 d940 6622 05bf ede1 c0be
00000170: adb2 d03e f447 7b3d eafd 783e 70b7 dcc0
00000180: 1dc8 463e bfb8 d1be 3905 a3bf 1b1f 853f
00000190: 8eb4 543c 3856 ab40 98a5 04be 8094 0c3e
000001a0: febe 83be 80d2 853e 11a6 95be b090 95bd
000001b0: 3305 ec3d a6f0 023f 2cd7 a7bf a2ab 6240
000001c0: 0a2f 953e 8bbb b540 e6a6 923e 9353 1a3e
000001d0: d93e ecbf ed00 e23e c858 013c 8bba 2d40
000001e0: f18d c0bb e3d7 84bf 0237 1740 4502 7abf
000001f0: f5c3 d5bf 275b 39c0 3f45 72be ed5a 9abc
00000200: 2800 a6bd 2fcf d3be ada8 86bc d1b7 af3e
00000210: 7458 cabe a1ba c8be a0e2 bebc 8068 c53e
00000220: a001 763c 6095 e03c f9ea 813e 2abe 9b3f
00000230: b80e 533f c3bb 49bf b6be a9be 2f78 e8bf
00000240: 666e 21be 8ca2 133e 0219 85be 7866 553d
00000250: d2e0 3abe dfd4 b1be 2ba9 363e 7ab0 e63f
00000260: 6711 43c0 c4ef 76c0 9dd6 f5bf c816 9d40
00000270: cb6c 103c d022 b53e 6266 a5c0 61b6 f9c0
00000280: 6f9a 24be 402b e340 1091 8ebe c85b c8bd
00000290: 1ca8 c83e da90 ce3e aa4b a2be e0a6 81be
000002a0: b715 93be 6aff 3c3f 9c09 2841 5f60 ed3f
000002b0: 7f03 4d3e 562c f740 d7ba 32bf d4f0 993e
000002c0: 4c00 0d3f 57c5 80be c59a 273e 0ff4 acc0
000002d0: 50b3 77be 3f20 fdbf 2c34 4dbf 3c75 abbf
000002e0: c522 f6bf 901a 4a3f 805d 993e 536a b2bf
000002f0: 4ba0 c4bf dac4 fbbe 3813 d73d 30ce d93f
00000300: 372e 4e3c ad8e ebc1 3bc6 f23f 55e3 04c2
00000310: 4232 a6c1 a17d 063d 68e0 373d 71de c1be
00000320: 895c eac1 9df0 7fc0 c722 463e 8575 8f3f
00000330: a5fa b339 a256 193f 5466 e6bf ddcf be3f
00000340: f507 be3d 6bd8 ca40 2389 c7be 5ef7 943f
00000350: 8460 47c0 6b97 cfbf 81d1 583f c9c3 1fc0
00000360: 0a81 8fbd 4d44 7abf ee77 4941 11ec 0c40
00000370: 0480 d63e e75e d8c0 e772 1f3c 0c79 ea3f
00000380: 205d c6c0 270d b8c0 11da 5dbf 84f0 b540
00000390: df74 ab3c e916 e5c0 f962 93be 0af1 61c1
000003a0: 6910 d1c0 d2b5 0d3f 1e63 c53d f787 a1be
000003b0: 05bc 73bf 887f 2b40 c9bc c83e df35 ae40
000003c0: aca5 863d 2ac2 543f b079 48c0 5397 9c3f
000003d0: 182f 3f3e a872 ab40 ea09 8338 c566 9b3e
000003e0: fdf1 babf 87a9 0d40 2486 dd3e 77f6 c140
000003f0: 9c9d 3bbe 39c8 b3be d896 7a3e 62ee a9be

bias f4 [256]
21.66858 -33.293777 32.65974 30.757982 -0.4015859 7.43422 37.898125 23.3312
-18.131916 33.09245 -35.34059 -0.3513579 7.9309835 -26.227444 33.52224 -0.34167692
31.412594 0.3267892 27.160604 35.278027 -2.6320674 -0.08859916 0.39619195 -25.466253
-0.05057186 7.210182 20.893633 0.06802079 2.375115 0.13421826 -0.8637565 34.583252
28.194395 -43.350845 24.808167 -2.5951834 6.1248927 17.217213 17.051064 28.61985
28.300829 26.628853 0.37137002 0.25207967 -0.118973315 35.319004 -23.742401 0.008166164
-0.05088663 0.024906723 26.006645 -42.89352 -50.819946 -11.005653 -0.062564425 0.3310919
33.269627 46.11628 0.047791094 29.220901 28.886461 0.24966186 0.33272368 28.302177
0.14366208 -0.07681209 -0.0053818654 0.36045736 8.972865 11.361676 0.093955696 0.10929638
-22.06522 25.979074 25.74163 22.403019 14.132148 0.40710455 1.5629987 44.562458
0.2010194 0.24405211 -0.9073003 0.08808591 -36.882996 29.802063 31.584576 -0.30592152
-3.654844 6.3309417 28.281061 -31.864357 1.5027407 -3.4667091 0.35143453 -0.21982612
-0.55181026 18.093204 -0.845995 -22.89018 11.920053 11.368351 0.74055105 -28.871159
0.06749731 -27.750721 8.473772 3.9158974 34.742535 10.611655 0.3504112 31.873266
-27.401024 -3.1739225 16.609098 0.23395318 35.839405 2.1753747 33.122738 -22.983969
-0.1907474 0.017135948 30.787718 27.197489 37.03642 17.540695 5.317252 -3.3353953
-33.80535 -31.299953 9.043567 -0.1948404 -14.195668 -0.34329155 -1.2745264 -0.03992483
0.26694626 -0.3237625 4.7490215 18.310852 -0.14705792 29.642456 30.589197 23.006792
27.069237 41.979275 0.08798647 29.45506 -1.5869561 29.831076 -0.18590854 -0.34577873
23.26479 -0.17394517 27.44211 -24.480328 36.18037 -0.22933657 0.22723031 0.056260884
31.39749 0.07474482 -0.042164803 28.765482 -0.20201278 29.947226 -45.136173 27.825922
-0.32159483 0.25043386 0.39155513 -1.1580839 -20.909527 16.197319 -30.984919 -46.06279
-34.051952 -0.3371782 8.469033 26.82231 -28.36797 -4.5647364 -20.747667 0.21496011
-0.23352812 0.24986243 -0.09799984 -39.038727 0.3285581 -10.527944 0.3108624 38.399124
43.269753 13.370407 0.27079165 -15.350452 0.37312 31.534025 0.37478656 0.30604142
-31.132856 -8.401658 -24.778835 3.1570868 -3.9743037 -24.92866 24.952211 1.0518025
-4.42638 27.748034 0.033819042 -2.77201 -0.08716295 -16.805168 -0.06249863 -20.725187
28.876215 -0.19866788 -0.33661658 -0.24231897 -24.371895 36.012497 -1.296189 -3.400647
-0.16160196 0.07006791 -0.3027443 -10.299832 29.105062 26.520168 -21.968515 0.10933096
-2.8893023 29.79902 -9.346783 0.33148485 30.564442 30.40626 0.19419532 -37.05383
-21.002651 0.20854163 29.084736 41.472248 -7.1328344 5.3573446 32.883804 0.11524004
39.682087 -29.944168 0.9298964 0.06824091 23.436422 -39.940018 26.649424 0.26290625
00000000: 4059 ad41 d42c 05c2 93a3 0242 5910 f641
00000010: ab9c cdbe 21e5 ed40 ae97 1742 4ca6 ba41
00000020: 2a0e 91c1 ab5e 0442 c45c 0dc2 2fe5 b3be
00000030: 9eca fd40 ced1 d1c1 c616 0642 47f0 aebe
00000040: fe4c fb41 ea50 a73e eb48 d941 b31c 0d42
00000050: cb73 28c0 7a73 b5bd acd9 ca3e e3ba cbc1
00000060: 7024 4fbd d0b9 e640 2926 a741 7c4e 8b3d
00000070: e201 1840 8370 093e 251f 5dbf 4055 0a42
00000080: 1f8e e141 4467 2dc2 2077 c641 7c17 26c0
00000090: 1fff c340 dabc 8941 9468 8841 74f5 e441
000000a0: 1968 e241 e407 d541 3624 be3e 9610 813e
000000b0: 48a8 f3bd a946 0d42 70f0 bdc1 60cb 053c
000000c0: 806e 50bd 2f09 cc3c 9c0d d041 f792 2bc2
000000d0: a047 4bc2 2817 30c1 c721 80bd e184 a93e
000000e0: 1914 0542 1277 3842 98c0 433d 68c4 e941
000000f0: 7917 e741 5ca7 7f3e c25a aa3e dc6a e241
00000100: 271c 133e a84f 9dbd 5c5a b0bb de8d b83e
00000110: db90 0f41 6dc9 3541 d86b c03d c8d6 df3d
00000120: 9285 b0c1 25d5 cf41 dcee cd41 6239 b341
00000130: 471d 6241 0270 d03e 5710 c83f f53f 3242
00000140: 08d8 4d3e cce8 793e d544 68bf 6366 b43d
00000150: 3088 13c2 a06a ee41 36ad fc41 bfa1 9cbe
00000160: f7e8 69c0 1397 ca40 9d3f e241 34ea fec1
00000170: cf59 c03f 90de 5dc0 3aef b33e 191a 61be
00000180: 7043 0dbf e2be 9041 2193 58bf 171f b7c1
00000190: 89b8 3e41 c4e4 3541 c194 3d3f 22f8 e6c1
000001a0: 083c 8a3d 7a01 dec1 9294 0741 109e 7a40
000001b0: 5bf8 0a42 57c9 2941 1969 b33e 73fc fe41
000001c0: 4c35 dbc1 8c21 4bc0 6fdf 8441 6c91 6f3e
000001d0: 8d5b 0f42 5739 0b40 af7d 0442 2bdf b7c1
000001e0: 4953 43be b060 8c3c 3f4d f641 7594 d941
000001f0: 4b25 1442 5853 8c41 ee26 aa40 1e77 55c0
00000200: ae38 07c2 4e66 fac1 73b2 1041 3e84 47be
00000210: 7521 63c1 e9c3 afbe ae23 a3bf 3888 23bd
00000220: 2ead 883e 33c4 a5be fcf7 9740 a07c 9241
00000230: 5a96 16be c023 ed41 adb6 f441 e90d b841
00000240: cc8d d841 c7ea 2742 4032 b43d f6a3 eb41
00000250: 6121 cbbf 0ba6 ee41 cf5e 3ebe e909 b1be
00000260: 4a1e ba41 af1e 32be 7189 db41 b6d7 c3c1
00000270: b3b8 1042 35d7 6abe 10af 683e d071 663d
00000280: 0f2e fb41 d013 993d 00b5 2cbd b51f e641
00000290: 70dc 4ebe eb93 ef41 718b 34c2 7d9b de41
000002a0: 14a8 a4be de38 803e ea79 c83e 183c 94bf
000002b0: b646 a7c1 1c94 8141 1de1 f7c1 4c40 38c2
000002c0: 3335 08c2 9fa2 acbe 2981 0741 1794 d641
000002d0: 9af1 e2c1 5212 92c0 39fb a5c1 811e 5c3e
000002e0: ff21 6fbe f0db 7f3e 24b4 c8bd a827 1cc2
000002f0: c438 a83e 7572 28c1 5b29 9f3e b498 1942
00000300: 3a14 2d42 30ed 5541 34a5 8a3e 749b 75c1
00000310: 9609 bf3e af45 fc41 06e4 bf3e 76b1 9c3e
00000320: 1710 f9c1 316d 06c1 0e3b c6c1 b60d 4a40
00000330: fe5a 7ec0 e56d c7c1 219e c741 77a1 863f
00000340: e8a4 8dc0 f9fb dd41 d685 0a3d 9d68 31c0
00000350: 7d82 b2bd fc70 86c1 90fe 7fbd 2fcd a5c1
00000360: 7d02 e741 986f 4bbe 0259 acbe 7722 78be
00000370: a4f9 c2c1 cc0c 1042 85e9 a5bf 33a4 59c0
00000380: fc7a 25be c47f 8f3d 4d01 9bbe 1dcc 24c1
00000390: 2bd7 e841 4e29 d441 85bf afc1 e9e8 df3d
000003a0: 54ea 38c0 6564 ee41 6c8c 15c1 62b8 a93e
000003b0: fa83 f441 0540 f341 23db 463e 1f37 14c2
000003c0: 6e05 a8c1 f08b 553e 8aad e841 95e3 2542
000003d0: 2e40 e4c0 5e6f ab40 0489 0342 f802 ec3d
000003e0: 75ba 1e42 a88d efc1 b10d 6e3f e4c1 8b3d
000003f0: cb7d bb41 94c2 1fc2 0532 d541 a69b 863e

weight f4 [256, 256]
0.26122665 0.7018902 0.05884846 0.09125595 0.3241504 2.076898 -0.16264322 0.025542732
0.60061306 -0.051251538 0.23398557 -0.038262196 -2.6079261 0.52741885 0.09115367 0.07256639
0.07686879 -0.018091545 -0.0060029207 0.048910685 0.0319002 -0.009985701 0.012329012 -0.07107924
0.0037966743 -0.72374994 0.105219714 0.011198118 0.03159115 0.28707677 -0.20600873 0.021144731
5.0785484 0.2912894 0.056498695 -0.15953684 -0.14216007 0.7683777 0.07589363 0.03487523
0.05525971 0.038771395 -0.001306206 -0.015783735 0.04692152 -0.02977132 0.6342433 0.021070473
0.007792093 0.0020824235 0.0013328757 0.574265 -0.18206334 -0.1110125 -0.025008056 1.075197
0.0053028087 -0.052289005 0.011473551 0.26739916 0.1521678 -0.043932185 0.058425367 0.04088761
0.06944083 0.028462142 0.2889384 0.03339298 0.00874729 0.12788667 1.1583593 -0.055742495
0.47411525 0.083272085 0.045748644 0.110736035 0.15818009 -0.014647409 -0.51953804 0.08267965
-0.04287515 0.00065381825 0.43986782 -0.12572306 -0.109228134 0.11788335 -0.2199663 -0.03484542
0.12426947 1.4982897 0.4232178 1.504782 1.778067 -0.027247934 -0.057443596 -0.028870054
0.29317573 0.16460712 0.1896902 -0.15804414 -1.5759455 -0.07051152 -0.48452204 0.34719962
0.05328221 0.31878376 0.0306935 -0.31275856 0.11384159 0.27283892 0.05700259 0.06900443
-0.1455883 -0.115703136 0.039440073 -0.007707007 -0.019339481 -0.17117877 -0.008244883 0.58113486
0.37979028 0.020414315 -0.0045539676 0.03861673 0.46115798 0.031359315 0.12561405 0.04207401
0.07915887 0.63882816 -0.124015264 0.38520634 0.15102954 0.03883466 0.12237513 -0.011141196
0.053853385 -0.010795899 2.7620049 -0.2960237 0.004405327 0.037952613 0.16361625 0.24192902
-0.0068318336 0.01039214 -0.04483553 0.06536918 0.04034345 0.027817858 0.01515054 0.029534698
0.66629833 0.017566085 0.02496447 -0.11001651 0.09243025 0.03522773 -0.03699369 -0.0025326982
0.23905069 -0.06207738 0.013657615 -0.059260312 -0.043035097 0.01070897 0.98857284 0.06774524
0.03689234 -0.055808276 0.028446084 0.14284974 0.77710605 0.23388694 0.75903976 0.81987876
0.67870927 -0.051995374 0.0416973 -0.08400149 0.64713544 2.7705839 0.31219006 -0.019025544
-0.017194562 0.0044563636 -0.0036374405 -0.002941943 -0.02702514 -0.08312745 0.04948664 0.06914404
-0.23053993 0.2159005 -0.028757155 0.97016543 -0.059129685 -0.030533662 0.03375666 -0.03057807
0.12698427 -0.16038136 0.581676 -0.3182008 -0.21950786 -0.029047262 0.014787955 -0.14668791
0.13098437 0.0995073 -0.055138987 0.81446785 0.2477509 0.15517823 0.04745678 -0.08069169
-0.029237514 0.0026950324 -0.029299252 0.0014164597 0.0067808107 0.121458024 0.170785 -0.02737395
0.06150634 0.017391391 -0.04111512 -0.023646714 0.0757438 0.5105759 -0.5347383 0.053686485
-0.11349426 0.07417227 4.1718655 0.038968384 0.08348583 0.0021158222 -0.006848492 -0.050991427
0.8890789 -0.035825387 0.08486369 0.046125736 -0.10825529 -1.0835111 -0.056092203 -0.04674697
-0.010749689 0.6457905 -0.27835813 -0.045806937 0.12848425 -0.19919245 0.16972531 -0.36356062
00000000: 80bf 853e 13af 333f 150b 713d 66e4 ba3d
00000010: 0bf7 a53e e6eb 0440 f28b 26be fe3e d13c
00000020: c7c1 193f 22ed 51bd ea99 6f3e d2b8 1cbd
00000030: 43e8 26c0 ec04 073f c6ae ba3d b09d 943d
00000040: 626d 9d3d b834 94bc 26b4 c4bb 9256 483d
00000050: c9a9 023d 119b 23bc a0ff 493c fe91 91bd
00000060: a0d1 783b ad47 39bf 6f7d d73d 5078 373c
00000070: b965 013d bafb 923e f4f3 52be b737 ad3c
00000080: 7883 a240 e223 953e 2d6b 673d a05d 23be
00000090: 6992 11be 67b4 443f 1f6e 9b3d 54d9 0e3d
000000a0: 0158 623d c1ce 1e3d 0035 abba e44c 81bc
000000b0: c830 403d fce2 f3bc c55d 223f fc9b ac3c
000000c0: d054 ff3b 4579 083b e3b3 ae3a 0803 133f
000000d0: d06e 3abe 865a e3bd b2dd ccbc 0ea0 893f
000000e0: 2fc3 ad3b ff2c 56bd 90fb 3b3c 8be8 883e
000000f0: e0d1 1b3e 3cf2 33bd 704f 6f3d c479 273d
00000100: fe36 8e3d 7029 e93c bcef 933e 14c7 083d
00000110: cb50 0f3c b9f4 023e 1e45 943f 3e52 64bd
00000120: 3cbf f23e 8e8a aa3d ee62 3b3d 93c9 e23d
00000130: f6f9 213e b0fb 6fbc 7200 05bf f353 a93d
00000140: da9d 2fbd 0065 2b3a 5b36 e13e 8cbd 00be
00000150: 00b3 dfbd d36c f13d d93e 61be 12ba 0ebd
00000160: fe80 fe3d f5c7 bf3f 01b0 d83e b29c c03f
00000170: b397 e33f 0f37 dfbc fa49 6bbd e480 ecbc
00000180: 211b 963e c58e 283e 263e 423e 53d6 21be
00000190: 95b8 c9bf 5868 90bd 4613 f8be 26c4 b13e
000001a0: 723e 5a3d a037 a33e ef70 fb3c e421 a0be
000001b0: c825 e93d 8bb1 8b3e 8c7b 693d 3252 8d3d
000001c0: 1915 15be c4f5 ecbd ea8b 213d 108b fcbb
000001d0: d56d 9ebc 7d49 2fbe 8c15 07bc 41c5 143f
000001e0: df73 c23e ec3b a73c 7339 95bb 942c 1e3d
000001f0: e61c ec3e a072 003d f8a0 003e cc55 2c3d
00000200: 0c1e a23d 3e8a 233f b7fb fdbd c439 c53e
00000210: 7da7 1a3e 1811 1f3d d09f fa3d 9089 36bc
00000220: 5e95 5c3d 48e1 30bc b0c4 3040 6b90 97be
00000230: 905a 903b 3374 1b3d 058b 273e 3ebc 773e
00000240: 93dd dfbb cb43 2a3c 76a5 37bd 47e0 853d
00000250: 2c3f 253d 47e2 e33c f839 783c c0f2 f13c
00000260: 8792 2a3f c0e6 8f3c 4a82 cc3c 5650 e1bd
00000270: 124c bd3d f44a 103d b286 17bd a0fb 25bb
00000280: b4c9 743e da44 7ebd 30c4 5f3c f1ba 72bd
00000290: 9245 30bd ad74 2f3c 1c13 7d3f 04be 8a3d
000002a0: 6c1c 173d 3897 64bd c307 e93c 3447 123e
000002b0: 6cf0 463f 0f80 6f3e 6e50 423f 93e3 513f
000002c0: e4bf 2d3f 1af9 54bd caca 2a3d f908 acbd
000002d0: abaa 253f 3f51 3140 60d7 9f3e 75db 9bbc
000002e0: 9cdb 8cbc b006 923b 2062 6ebb 9dcd 40bb
000002f0: d463 ddbc b93e aabd 81b2 4a3d 649b 8d3d
00000300: a912 6cbe 0515 5d3e 2094 ebbc c35c 783f
00000310: f831 72bd bb21 fabc 6c44 0a3d dc7e fabc
00000320: 2a08 023e 033b 24be b8e8 143f 37eb a2be
00000330: abc6 60be 86f4 edbc 2e49 723c 5b35 16be
00000340: c420 063e 7cca cb3d 6bd9 61bd f780 503f
00000350: 69b2 7d3e 0be7 1e3e 0a62 423d af41 a5bd
00000360: 8383 efbc 249f 303b fc04 f0bc 80a8 b93a
00000370: 9031 de3b fcbe f83d 43e2 2e3e 563f e0bc
00000380: 12ee 7b3d 6478 8e3c 5468 28bd c1b6 c1bc
00000390: 911f 9b3d 1ab5 023f 9ce4 08bf 5ce6 5b3d
000003a0: ae6f e8bd a2e7 973d ec7f 8540 509d 1f3d
000003b0: 9efa aa3d 9ba9 0a3b 5169 e0bb 63dc 50bd
000003c0: ad9a 633f a4bd 12bd 04cd ad3d 57ee 3c3d
000003d0: f3b4 ddbd 7eb0 8abf f0c0 65bd c079 3fbd
000003e0: 771f 30bc 8752 253f f584 8ebe 0ea0 3bbd
000003f0: 6091 033e 1bf9 4bbe 79cc 2d3e 9e24 babe

bias f4 [256]
-15.95749 24.005753 2.2725022 0.014032863 0.00058502343 -0.042748533 9.956398 -0.015919864
-0.29305655 -0.054649115 -0.012790546 34.565712 11.494168 20.330826 0.016144989 22.69298
0.15306228 0.03857274 11.996293 34.58048 -0.009695266 30.942371 -0.020615365 12.171099
0.09028883 -29.478968 0.00644852 -15.912379 0.046773948 0.11134717 0.034927502 -0.040325273
0.023587808 -2.04048 29.708248 4.674407 0.0037309662 -0.0025429034 14.153998 0.021747423
46.208702 -0.80220014 -0.03271878 23.213837 -0.061289363 -0.051429756 15.133938 -0.048684664
-0.053587347 -0.011202348 0.03817143 -0.043820724 0.019597663 -0.031115908 -0.025585223 -0.06926541
-40.831287 0.007912134 24.468193 -22.249146 0.026638128 -0.0012687653 0.04901798 0.2765874
-14.936865 4.576228 28.31235 -0.029202657 -37.186943 1.5143642 23.143015 19.577124
0.031235985 17.952417 14.142182 -0.0027587246 -0.07237512 0.018351916 20.131672 0.033885367
-0.2557675 29.165062 -12.927876 0.014821423 0.008417998 21.226604 37.334854 40.58239
-9.204199 -0.07522362 -2.3449197 -0.10287701 -0.028811729 -0.05006998 -5.7190394 -0.02908662
-0.03352646 0.021720406 -0.01825487 -33.118664 0.006638229 -0.017122462 -0.041126613 -0.050326407
0.060965605 39.408325 0.059125505 -0.03263862 -0.025802795 36.9818 12.103792 22.53518
-5.7398443 -1.7291368 14.088111 -0.060235474 0.061365634 0.034950748 0.5878769 -0.9087878
38.01714 -51.72795 -0.008243876 0.011635281 35.22523 17.262892 -0.247403 0.049988046
0.031673864 -0.6108852 -0.038326923 -55.07412 29.606524 5.9364643 0.04046128 16.9703
-8.27025 0.04781095 -20.579706 0.022842733 0.0013061464 3.9833243 29.094284 0.017231196
-4.674456 -0.02522688 -53.623947 -0.004240692 0.007522762 -0.008503642 -8.29298 0.007891791
-22.802246 -24.617903 -0.054396518 0.04599872 -0.061327986 -0.03763843 0.039998718 3.4063962
18.259945 0.05239252 29.711197 -34.236206 -0.06248582 -4.468771 -30.072372 41.46471
-0.04027047 0.041167345 -0.50027484 -1.0577239 18.50165 48.43508 14.496161 -0.085314
-0.024595995 -0.024692208 -0.04001885 -6.356425 -0.005690756 -0.0042481325 0.003680557 12.801076
0.016704097 0.043198936 0.010407806 0.029580997 -0.058360845 19.667568 0.015014954 28.398983
-0.013542319 0.052348554 34.93368 22.309597 0.007869408 26.498158 -24.7506 18.214817
26.186853 0.049193103 19.416866 27.2081 -0.004125576 -0.0037409414 0.007672404 0.0055119097
30.63179 -3.020173 -0.009776708 36.377697 0.031124823 0.010477572 0.0144628985 -0.06757213
-14.169861 2.01556 61.973248 -0.0620751 -0.17843169 26.578995 -0.030155769 -32.682896
-0.048528545 -0.05008742 -0.04847318 0.01071755 -11.257037 34.908287 8.121776 -3.9745188
-0.040957175 -0.008290775 0.012099543 42.15449 -30.990036 7.876497 0.03604599 18.379358
4.459218 -0.053462923 17.27122 22.690033 0.036789514 -0.04381471 0.014351061 -0.009131457
-0.01398702 26.787807 0.015657037 0.03358969 -16.14924 33.951595 11.570554 0.014327274
00000000: e151 7fc1 c80b c041 ad70 1140 18ea 653c
00000010: 425c 193a 1619 2fbd 684d 1f41 606a 82bc
00000020: 820b 96be c0d7 5fbd 708f 51bc 4a43 0a42
00000030: 1de8 3741 88a5 a241 7f42 843c 398b b541
00000040: 5cbc 1c3e 73fe 1d3d d1f0 3f41 6952 0a42
00000050: e5d8 1ebc fa89 f741 8ee1 a8bc d2bc 4241
00000060: 5ae9 b83d edd4 ebc1 1b4e d33b 1b99 7ec1
00000070: 0a96 3f3d fc09 e43d 2410 0f3d 1d2c 25bd
00000080: 383b c13c 3997 02c0 7eaa ed41 be94 9540
00000090: 3a83 743b d7a6 26bb c776 6241 a727 b23c
000000a0: b6d5 3842 fd5c 4dbf 2104 06bd f0b5 b941
000000b0: 8e0a 7bbd 02a8 52bd 9c24 7241 9269 47bd
000000c0: 687e 5bbd 0e8a 37bc a559 1c3d 5c7d 33bd
000000d0: 478b a03c cae6 febc 1a98 d1bc 06db 8dbd
000000e0: 3d53 23c2 e5a1 013c dcbe c341 40fe b1c1
000000f0: 3438 da3c b34c a6ba 14c7 483d dd9c 8d3e
00000100: 66fd 6ec1 7670 9240 b17f e241 693a efbc
00000110: 6ebf 14c2 b0d6 c13f e524 b941 f39d 9c41
00000120: 9ce2 ff3c 8d9e 8f41 6146 6241 b8cb 34bb
00000130: 6839 94bd c256 963c aa0d a141 62cb 0a3d
00000140: f5f3 82be 0c52 e941 95d8 4ec1 8ed5 723c
00000150: a5eb 093c 16d0 a941 e456 1542 5e54 2242
00000160: 6644 13c1 d70e 9abd 2a13 16c0 2fb1 d2bd
00000170: 9306 ecbc 2e16 4dbd 5f02 b7c0 1047 eebc
00000180: 0b53 09bd feee b13c 3d8b 95bc 8379 04c2
00000190: 8085 d93b 6844 8cbc 6174 28bd 1023 4ebd
000001a0: 12b7 793d 20a2 1d42 962d 723d 13b0 05bd
000001b0: 6260 d3bc 5ded 1342 22a9 4141 0c48 b441
000001c0: ceac b7c0 5b54 ddbf e768 6141 79b9 76bd
000001d0: 885a 7b3d 8428 0f3d 1a7f 163f 51a6 68bf
000001e0: 8d11 1842 6ce9 4ec2 5211 07bc e8a1 3e3c
000001f0: a3e6 0c42 671a 8a41 3657 7dbe 44c0 4c3d
00000200: 74bc 013d f962 1cbf b1fc 1cbd e64b 5cc2
00000210: 29da ec41 84f7 bd40 baba 253d 2dc3 8741
00000220: f252 04c1 6ad5 433d 3da3 a4c1 af20 bb3c
00000230: 0033 ab3a c9ee 7e40 18c1 e841 7028 8d3c
00000240: 2595 95c0 9aa8 cebc ec7e 56c2 81f5 8abb
00000250: 8081 f63b dc52 0bbc 0cb0 04c1 924c 013c
00000260: 006b b6c1 77f1 c4c1 e2ce 5ebd 2769 3c3d
00000270: 0e33 7bbd c12a 1abd b2d5 233d 6502 5a40
00000280: 5e14 9241 8a99 563d 88b0 ed41 e0f1 08c2
00000290: 22f1 7fbd 2c00 8fc0 3894 f0c1 dddb 2542
000002a0: a6f2 24bd 179f 283d 0312 00bf 7f63 87bf
000002b0: 6103 9441 86bd 4142 47f0 6741 1bb9 aebd
000002c0: 8a7d c9bc 5047 cabc ceea 23bd d567 cbc0
000002d0: 8579 babb eb33 8bbb 8035 713b 35d1 4c41
000002e0: 08d7 883c 5ef1 303d 8185 2a3c d953 f23c
000002f0: c80b 6fbd 2e57 9d41 4801 763c 1e31 e341
00000300: 9ae0 5dbc 706b 563d 17bc 0b42 0e7a b241
00000310: b0ee 003c 3afc d341 3b01 c6c1 f2b7 9141
00000320: ad7e d141 b57e 493d be55 9b41 30aa d941
00000330: d72f 87bb 952a 75bb ca68 fb3b 409d b43b
00000340: e80d f541 844a 41c0 7c2e 20bc c382 1142
00000350: 7cf9 fe3c 1faa 2b3c cbf5 6c3c 4263 8abd
00000360: c0b7 62c1 effe 0040 9be4 7742 7642 7ebd
00000370: ccb6 36be c8a1 d441 3b09 f7bc 49bb 02c2
00000380: dec5 46bd 7728 4dbd d08b 46bd aa98 2f3c
00000390: d31c 34c1 16a2 0b42 cbf2 0141 845e 7ec0
000003a0: b6c2 27bd 08d6 07bc 293d 463c 339e 2842
000003b0: 98eb f7c1 430c fc40 f6a4 133d ed08 9341
000003c0: eab1 8e40 f0fb 5abd 752b 8a41 3085 b541
000003d0: 9ab0 163d 0e77 33bd b620 6b3c 1b9c 15bc
000003e0: d029 65bc 6e4d d641 3043 803c 5895 093d
000003f0: a531 81c1 6fce 0742 fd20 3941 f1bc 6a3c

weight f4 [256, 256]
0.02522035 0.010911629 0.011391681 0.014992222 -0.004230544 0.052020602 0.03945796 0.034518592
0.039992064 0.05182635 -0.036274284 0.04986279 0.04022548 0.043761272 -0.0076469854 0.043224256
-0.05030313 -0.024697475 -0.016732723 -0.044320546 0.049114317 -0.033759885 -0.027998969 -0.06917417
-0.010183439 0.043659985 -0.015350208 -0.06405035 0.05401794 0.029309234 0.03918097 0.040552333
-0.0001488775 0.010301632 -0.007185921 -0.028956853 -0.045283183 -0.024429679 -0.029459614 0.0036159977
-0.046354905 -0.067183405 -0.051090576 -0.054818895 0.037513956 -0.020207733 -0.039032724 -0.033587985
0.025612302 -0.04550419 -0.0030894578 0.051680587 0.036672577 0.043240122 -0.04716222 0.033573896
-0.047632817 -0.057758227 0.0027784638 0.029792817 0.024207868 0.020428352 0.01160901 0.029292874
0.046940636 0.0010171954 -0.065804705 0.05010409 0.021804977 -0.024528772 0.020592202 0.003973075
-0.029129937 0.033504453 -0.051785585 0.044985235 -0.04265491 0.03229496 0.05333602 -0.005276434
-0.006085165 -0.0038372502 0.015454203 0.038720354 0.03775292 0.029544417 -0.056306183 0.009482367
-0.05275834 -0.004247345 0.027208809 -0.039132543 -0.053646192 0.053289115 -0.0270628 0.010611236
-0.051404506 -0.053348437 0.008824684 -0.04512589 -0.030873537 0.06185007 0.011257559 -0.040241726
-0.0359369 -0.063156076 0.051283583 0.045301154 0.034668826 0.053513534 -0.01836318 0.049759947
-0.025342084 -0.011683311 -0.000587821 0.027260825 0.042365953 0.050474234 -0.014834546 -0.041029613
-0.036479916 0.0005419441 0.051244654 -0.0060441718 -0.051709987 0.041606355 -0.060325544 -0.0014163852
-0.050512306 0.05128791 -0.021388203 0.026176687 -0.04361355 0.0055845147 -0.039211817 -0.0140160285
-0.008889125 0.032156907 -0.060336933 -0.00011898577 -0.032445207 -0.048923932 0.0002282021 -0.0012427345
-0.043704633 0.02515082 -0.044114728 0.010423645 0.05847843 0.036347747 0.024082672 0.0020672977
-0.045048457 0.033287276 0.060860835 -0.05226361 -0.011871226 0.036092557 -0.045080967 -0.042518537
0.025248101 0.035979606 0.033498105 -0.042670283 -0.058009826 -0.01998556 -0.019024711 0.018616267
0.018265478 0.023649901 -0.044419244 0.053725615 -0.03637122 0.013946988 -0.03274398 -0.06201253
-0.058461905 0.055097304 -0.009029709 -0.023033235 -0.019674763 -0.05004731 -0.013863981 -0.028022343
0.014841065 0.037862346 0.03817489 0.003773816 0.048128583 -0.038277596 0.012954526 0.04519802
-0.0095475465 -0.0042946488 0.05195933 0.05191178 -0.0052814484 0.006614633 -0.06633564 -0.06119287
0.02229822 -0.0215763 -0.05655476 -0.025671639 0.00788255 0.04787205 0.0493156 0.020928413
0.056880914 -0.037326086 -0.04388853 -0.016813966 0.044221878 0.007328339 -0.059977002 -0.012973785
-0.012389625 0.009494573 -0.064011134 0.03871037 -0.01708977 -0.03187117 0.027642801 0.027799524
-0.02027519 0.014626838 0.017632142 -0.06232124 0.028717332 -0.047181707 0.052680783 0.053852137
-0.047135703 0.046093315 0.042478092 -0.025359936 -0.05147728 -0.06815963 0.017307788 0.047864005
0.032577705 -0.025630362 0.037536368 0.047563456 0.033914506 -0.014211349 -0.013501175 0.03763511
0.012862757 -0.019513201 -0.01037249 0.014790423 0.010388677 -0.059417535 -0.007473924 0.0590804
00000000: e89a ce3c b0c6 323c 2ca4 3a3c f0a1 753c
00000010: 60a0 8abb 8e13 553d ab9e 213d 5e63 0d3d
00000020: b8ce 233d de47 543d 5894 14bd ed3c 4c3d
00000030: 79c3 243d 053f 333d 9093 fabb eb0b 313d
00000040: a80a 4ebd 5c52 cabc 1013 89bc 7689 35bd
00000050: 182c 493d ce47 0abd 185e e5bc 30ab 8dbd
00000060: 70d8 26bc d0d4 323d 707f 7bbc d42c 83bd
00000070: ea41 5d3d eb19 f03c 3a7c 203d 341a 263d
00000080: 001c 1cb9 2dc8 283c e077 ebbb ec36 edbc
00000090: dc7a 39bd c020 c8bc 4a55 f1bc 60fa 6c3b
000000a0: a4de 3dbd 7497 89bd 5a44 51bd c789 60bd
000000b0: 3ca8 193d b08a a5bc c7e0 1fbd 8e93 09bd
000000c0: e4d0 d13c 9a62 3abd 8078 4abb 06af 533d
000000d0: fc35 163d 8e1c 313d 2c2d 41bd c884 093d
000000e0: a11a 43bd e493 6cbd e316 363b 1110 f43c
000000f0: 944f c63c 5c59 a73c b833 3e3c 9cf7 ef3c
00000100: d344 403d 6a53 853a 9ec4 86bd f239 4d3d
00000110: 5aa0 b23c 90f0 c8bc fab0 a83c 9230 823b
00000120: e8a1 eebc f73b 093d 1f1d 54bd 7042 383d
00000130: eab6 2ebd b847 043d df76 5a3d f0e5 acbb
00000140: 1066 c7bb 607a 7bbb a033 7d3c 3c99 1e3d
00000150: cea2 1a3d 2207 f23c 50a1 66bd ee5b 1b3c
00000160: 2119 58bd 502d 8bbb 02e5 de3c 7249 20bd
00000170: 1cbc 5bbd b045 5a3d ceb2 ddbc c0da 2d3c
00000180: 888d 52bd e483 5abd 6895 103c edd5 38bd
00000190: 80ea fcbc 8056 7d3d a071 383c 82d4 24bd
000001a0: 9232 13bd f957 81bd bc0e 523d b48d 393d
000001b0: e600 0e3d 0231 5b3d 616e 96bc 16d1 4b3d
000001c0: 349a cfbc 5c6b 3fbc 0018 1aba 1852 df3c
000001d0: ec87 2d3d 12be 4e3d 980c 73bc ab0e 28bd
000001e0: f76b 15bd 4111 0e3a eae5 513d 300e c6bb
000001f0: dacd 53bd 6d6b 2a3d eb17 77bd 00a6 b9ba
00000200: fee5 4ebd 4613 523d 5036 afbc 7e70 d63c
00000210: 1fa4 32bd 4efe b63b 929c 20bd 7ca3 65bc
00000220: b1a3 11bc f6b6 033d dc23 77bd 0088 f9b8
00000230: 44e5 04bd 7664 48bd 8949 6f39 40e3 a2ba
00000240: a103 33bd 1809 ce3c a5b1 34bd f0c7 2a3c
00000250: 1487 6f3d 60e1 143d 0649 c53c 807b 073b
00000260: bb84 38bd 3d58 083d 3649 793d 5e12 56bd
00000270: 887f 42bc cad5 133d d2a6 38bd eb27 2ebd
00000280: 1bd5 ce3c 5a5f 133d 4f35 093d 09c7 2ebd
00000290: b69b 6dbd c2b8 a3bc b6d9 9bbc 2481 983c
000002a0: 7ca1 953c 70bd c13c f4f0 35bd 640f 5c3d
000002b0: fdf9 14bd e881 643c 8d1e 06bd da00 7ebd
000002c0: c075 6fbd b6ad 613d 58f1 13bc 32b0 bcbc
000002d0: f82c a1bc 68fe 4cbd c025 63bc 1d8f e5bc
000002e0: f027 733c 8c15 1b3d 465d 1c3d 2052 773b
000002f0: 7a22 453d f8c8 1cbd 383f 543c 8f21 393d
00000300: 506d 1cbc 20ba 8cbb 4ed3 543d 72a1 543d
00000310: 0010 adbb 90bf d83b fbda 87bd 60a5 7abd
00000320: c2aa b63c c8c0 b0bc f7a5 67bd 544d d2bc
00000330: d025 013c 7c15 443d 28ff 493d 1072 ab3c
00000340: f6fb 683d 3de3 18bd 76c4 33bd 71bd 89bc
00000350: 0022 353d 9022 f03b 72aa 75bd 0090 54bc
00000360: dbfd 4abc 208f 1b3c 4518 83bd c48e 1e3d
00000370: d8ff 8bbc 588b 02bd 2873 e23c d4bb e33c
00000380: 2818 a6bc 68a5 6f3c 4871 903c 8e44 7fbd
00000390: 9c40 eb3c 9b41 41bd cec7 573d 0f94 5c3d
000003a0: 5e11 41bd 58cc 3c3d 82fd 2d3d a4bf cfbc
000003b0: d7d9 52bd 4797 8bbd 10c9 8d3c 0c0d 443d
000003c0: 3370 053d c4f6 d1bc bcbf 193d e6d1 423d
000003d0: f0e9 0a3d b8d6 68bc 0834 5dbc 4627 1a3d
000003e0: 50be 523c 26da 9fbc 60f1 29bc 8853 723c
000003f0: 4535 2a3c cd5f 73bd d2e7 f4bb 4afe 713d

bias f4 [256]
0.05353885 -0.008616564 0.0024660607 -0.01973357 0.04574772 0.12535371 26.536663 24.523342
0.03838055 -3.8052702 -34.368053 0.0020336173 7.1624427 -0.027925171 0.0144509915 0.01969242
-0.05895677 -0.06547754 -0.05795654 -42.148937 -0.0165168 26.49379 31.644875 23.612534
-0.037924815 27.69988 29.43802 20.666485 27.044752 -25.062939 -0.039254945 22.691788
0.044678867 0.049331695 -0.08445572 -22.666288 41.95737 0.043708857 28.747179 27.96519
-0.047812678 -0.04541687 26.828485 -0.05336438 -0.0340425 0.2956852 24.98788 28.812958
28.21729 0.008758989 -0.034320682 -0.022182047 29.63401 26.023552 21.522095 29.541359
-0.0046197185 0.03855508 -0.023963151 -0.02246726 24.757036 -0.023454882 25.317518 28.903963
-0.016492687 22.811857 27.593525 -0.0041446513 21.806295 -0.007872244 5.9674554 27.403997
18.974117 0.033129957 -12.036967 -0.05508821 0.0009922705 0.054864537 28.708551 26.798878
2.023867 27.786726 24.724287 -23.260424 4.2858357 28.579483 -0.07824143 -0.007865413
-25.310726 22.667824 26.678362 27.161901 -0.023314953 -11.997697 24.277336 -0.007734928
21.918839 -0.00018244892 -0.06611857 27.092062 -0.0006389427 0.022429852 -0.07958904 0.051225692
-0.11318765 28.167624 -0.03426349 23.037888 -0.07003577 0.013021545 -0.014982377 28.204502
-0.078744695 -0.06568251 -0.062772036 -0.28648394 26.61509 -30.51178 -0.046553027 22.167255
0.024101354 -2.0596693 -46.6921 30.826149 0.002631421 -28.410507 26.89648 -29.059723
0.2441877 -0.01107151 -0.034771178 -0.069700874 0.024539595 0.008595556 31.132177 28.834564
27.051474 -37.789024 0.022714175 -0.07199223 23.749851 -4.746179 0.036499556 0.020605093
24.533129 -0.020692425 -0.06560557 -0.0068264217 0.020427516 29.819012 24.152466 20.904081
25.508154 -0.05074106 -0.046407063 26.777843 28.95896 -0.058301 0.06318644 0.04068407
27.068401 -0.0049213944 -0.0567518 2.6362364 24.350327 30.377874 21.920582 21.842947
-0.017865436 -1.1680549 -0.054392766 -0.03925985 28.889725 -0.07288915 0.00066554535 27.6498
-0.018487344 23.251446 24.738575 -0.010653025 -0.00085241 28.84254 -0.0534994 -0.058875553
21.891455 24.613523 -0.009882815 -0.000632063 0.36661917 28.108036 -26.503262 28.38193
-25.988127 -33.7868 42.088966 29.922316 -0.08880126 0.039689474 21.265272 27.494614
25.143536 -0.03818476 -0.03031312 0.052303113 32.700397 -0.023420278 -0.013979447 0.025164861
25.245962 27.369995 -0.100106865 26.118608 0.033137996 -24.860025 -0.027277216 -0.03558745
0.009768611 22.723024 23.935926 24.87155 -0.033262044 -0.026767572 24.656376 -0.06564166
36.35824 24.052643 -0.07251526 -0.015716823 32.561916 21.07114 -0.037919246 -0.06570397
-34.20121 0.00491923 17.538092 -0.0005776036 0.02940695 24.886581 -29.702965 23.341663
25.456276 0.06253954 31.305578 28.063137 24.293634 26.058788 0.005722359 -0.03265284
-0.03308884 0.028091375 -0.047088467 -0.0224464 20.16669 0.022679063 -0.124065 -14.618355
00000000: 8e4b 5b3d 7d2c 0dbc a29d 213b 4ca8 a1bc
00000010: f661 3b3d b95c 003e 164b d441 ce2f c441
00000020: ec34 1d3d 8c89 73c0 e378 09c2 7046 053b
00000030: bb32 e540 54c3 e4bc dac3 6c3c ff51 a13c
00000040: a77c 71bd 1719 86bd d663 6dbd 8398 28c2
00000050: 3d4e 87bc 48f3 d341 b428 fd41 78e6 bc41
00000060: 0d57 1bbd 5b99 dd41 1181 eb41 f654 a541
00000070: a75b d841 e680 c8c1 cbc9 20bd c888 b541
00000080: 3001 373d 0810 4a3d 1ff7 acbd 8f54 b5c1
00000090: 59d4 2742 0f08 333d 39fa e541 b6b8 df41
000000a0: 3ad7 43bd 0a07 3abd bda0 d641 9c94 5abd
000000b0: 2670 0bbd 0d64 973e 2ee7 c741 f080 e641
000000c0: 03bd e141 dd81 0f3c d893 0cbd 20b7 b5bc
000000d0: 7412 ed41 3c30 d041 402d ac41 b454 ec41
000000e0: 0261 97bb eeeb 1d3d 5f4e c4bc 420d b8bc
000000f0: 690e c641 7424 c0bc 478a ca41 513b e741
00000100: ac1b 87bc af7e b641 8abf dc41 dbcf 87bb
00000110: 4b73 ae41 96fa 00bc 65f5 be40 633b db41
00000120: feca 9741 47b3 073d 6b97 40c1 2da4 61bd
00000130: 130f 823a a3b9 603d 1dab e541 1a64 d641
00000140: 0987 0140 374b de41 57cb c541 5915 bac1
00000150: 9125 8940 c8a2 e441 0b3d a0bd efdd 00bc
00000160: 5e7c cac1 b457 b541 496d d541 934b d941
00000170: 00ff bebc 91f6 3fc1 fc37 c241 4775 fdbb
00000180: c859 af41 c24f 3fb9 2c69 87bd 8bbc d841
00000190: b87e 27ba cfbe b73c 94ff a2bd 08d2 513d
000001a0: edce e7bd 4b57 e141 e057 0cbd 984d b841
000001b0: ea6e 8fbd 5158 553c a578 75bc d2a2 e141
000001c0: e644 a1bd 8d84 86bd a08e 80bd 06ae 92be
000001d0: b4eb d441 2018 f4c1 63ae 3ebd 8a56 b141
000001e0: 3470 c53c 9fd1 03c0 b6c4 3ac2 f49b f641
000001f0: eb73 2c3b b848 e3c1 fe2b d741 507a e8c1
00000200: 570c 7a3e 4765 35bc 396c 0ebd 55bf 8ebd
00000210: 4307 c93c 60d4 0c3c b30e f941 30ad e641
00000220: 6b69 d841 f627 17c2 1413 ba3c aa70 93bd
00000230: b2ff bd41 b3e0 97c0 8f80 153d 03cc a83c
00000240: d943 c441 2983 a9bc 375c 86bd 2db0 dfbb
00000250: 9b57 a73c 568d ee41 4038 c141 8f3b a741
00000260: b310 cc41 dcd5 4fbd 5515 3ebd 0639 d641
00000270: f3ab e741 08cd 6ebd e467 813d 57a4 263d
00000280: 168c d841 a643 a1bb 9374 68bd 19b8 2840
00000290: 78cd c241 e305 f341 5a5d af41 5bbe ae41
000002a0: 895a 92bc d382 95bf f3ca 5ebd f0ce 20bd
000002b0: 281e e741 e846 95bd fe77 2e3a ca32 dd41
000002c0: c572 97bc f602 ba41 9ae8 c541 068a 2ebc
000002d0: 4474 5fba 86bd e641 3022 5bbd 7e27 71bd
000002e0: b321 af41 7fe8 c441 88eb 21bc 08b1 25ba
000002f0: 82b5 bb3e 42dd e041 ae06 d4c1 310e e341
00000300: afe7 cfc1 af25 07c2 1a5b 2842 e760 ef41
00000310: 6fdd b5bd 6e91 223d 471f aa41 f8f4 db41
00000320: f625 c941 9f67 1cbd 3853 f8bc ca3b 563d
00000330: 35cd 0242 e2db bfbc 0d0a 65bc 8a26 ce3c
00000340: bbf7 c941 c0f5 da41 d404 cdbd e9f2 d041
00000350: b5bb 073d 55e1 c6c1 7874 dfbc 25c4 11bd
00000360: 860c 203c c1c8 b541 c77c bf41 eff8 c641
00000370: c83d 08bd ab47 dbbc 4240 c541 226f 86bd
00000380: d66e 1142 d06b c041 e182 94bd 91c0 80bc
00000390: 673f 0242 b291 a841 3651 1bbd ce8f 86bd
000003a0: 0ace 08c2 7e31 a13b 034e 8c41 526a 17ba
000003b0: d8e6 f03c b817 c741 ac9f edc1 babb ba41
000003c0: 74a6 cb41 bb14 803d d371 fa41 4e81 e041
000003d0: 5d59 c241 6678 d041 a082 bb3b fcbe 05bd
000003e0: 2a88 07bd e21f e63c d6df 40bd 83e1 b7bc
000003f0: 6255 a141 71c9 b93c ca15 febd c8e4 69c1

weight f4 [4, 256]
0.0048749372 0.025193134 -0.04937901 -0.0002773534 -0.026759433 0.06744007 0.26042357 0.0692792
0.04240071 1.500841 2.1309445 -0.008186599 -0.3896065 0.008155674 0.01419745 -0.0061614616
-0.035020426 -0.043190975 -0.024022665 -2.5714827 0.04616732 0.0641668 0.8549122 -0.245388
-0.048744712 0.52870446 0.67033744 0.16032709 0.5072728 0.28337434 0.0023450353 -0.09916555
-0.0375739 0.04197959 -0.056878135 -1.0778002 3.017256 0.0040506767 0.5687866 0.6303084
-0.013985087 -0.032137103 0.3652051 -0.06502578 0.028445698 -0.84726167 -0.02051749 4.766722
0.6397425 0.01353939 -0.03631233 -0.0680893 0.77238524 0.07701745 -0.82676446 1.0672449
-0.018873602 -0.013521746 -0.046839435 -0.020801812 0.27468556 -0.014597588 0.07510209 0.60228187
0.017887294 -0.088865906 0.4792724 -0.00478219 -0.29050758 -0.039457064 -0.6212329 0.40181187
-0.47833726 -0.012217918 -2.7802014 0.031766552 -0.0034762535 -0.031441078 0.78248566 0.38330185
-5.4116697 0.48652357 0.11870015 1.242817 -2.2110064 0.81142396 -0.03223161 -0.011566801
-3.2398183 -0.09981505 0.14681013 0.56082577 0.027055735 -3.9178317 0.15886486 -0.055378005
0.07193237 -0.08605001 -0.044096936 0.37784174 -0.006086293 -0.071917176 -0.015336752 -0.012975257
0.0048714625 0.60849243 0.043166887 -0.013968386 -0.03227013 0.06168879 0.069687694 0.4711682
0.0061001047 -0.016822735 0.023615249 -1.5863199 0.360473 0.29244745 -0.018743945 -0.17289037
-0.03063433 5.00745 2.5628462 3.9166703 0.047373902 -1.5597092 0.42753038 -0.80386233
-1.0266621 -0.019325918 -0.041135915 -0.05806317 -0.041545495 -0.05868983 0.9142001 0.7161173
0.4408431 -4.888335 -0.0467209 0.055284914 0.15418093 -1.4098235 -0.0020044418 -0.03270677
0.117666185 -0.047710452 -0.049511943 -0.0037971584 -0.02840649 0.38676712 -0.7457546 -0.28470427
0.14138447 -0.0048213303 -0.017937317 0.32271865 0.7564015 -0.01580498 0.028493583 0.04076741
0.4326523 -0.053122204 -0.03562656 1.181255 0.20775355 0.77287006 -0.29642758 1.6894915
-0.021805866 -1.9539448 -0.0134904105 0.0046839206 0.71151227 -0.007429122 0.006743702 0.48948509
0.013440733 0.0051387316 -0.05777035 0.0153812375 -0.018626247 0.6699957 0.04056091 -0.05259975
-0.2963583 0.12258396 -0.022851225 -0.02236758 -0.2792186 8.518629 3.266418 0.62580174
1.2363247 0.3440153 5.7986946 0.93369573 0.03869043 -0.017581597 -0.40478635 0.46870336
0.15068674 -0.00513533 0.052400336 -0.002216793 7.1467414 -0.05289141 -0.055290263 -0.056816358
0.24914296 0.4031989 -0.6058381 0.29171413 0.0040189526 -6.8513575 0.008579448 -0.00271003
0.040635202 0.0059307967 -0.0052805347 0.13483675 0.045854703 -0.019428046 0.2490034 -0.02127143
4.186792 0.40241003 -0.045511812 -0.0020702977 1.630372 -0.3528034 -0.04004207 -0.0143878395
-0.23968872 0.03873239 1.6381875 0.02656484 -0.044637658 -0.80462253 0.62267727 0.71071565
0.13752995 0.023947436 0.8938624 0.715165 -0.830575 0.25552008 -0.06401318 -0.07941402
0.042045638 0.007778404 -0.023188168 -0.028719308 -0.51732236 0.0059088566 -0.17529663 0.3023556
00000000: f0bd 9f3b d561 ce3c a541 4abd be69 91b9
00000010: 9936 dbbc 051e 8a3d 3d56 853e 41e2 8d3d
00000020: 5eac 2d3d 8f1b c03f 6561 0840 1621 06bc
00000030: 817a c7be 609f 053c 6c9c 683c 16e6 c9bb
00000040: 9471 0fbd 05e9 30bd 2ecb c4bc 2c93 24c0
00000050: f219 3d3d e269 833d 87db 5a3f fe46 7bbe
00000060: 89a8 47bd 2d59 073f 3c9b 2b3f c92c 243e
00000070: a1dc 013f 7116 913e 2aaf 193b 4f17 cbbd
00000080: 17e7 19bd caf2 2b3d 0cf9 68bd 5bf5 89bf
00000090: b91a 4140 8abb 843b 009c 113f e45b 213f
000000a0: b521 65bc 32a2 03bd 2afc ba3e 3c2c 85bd
000000b0: f406 e93c 24e6 58bf 4c14 a8bc fd88 9840
000000c0: 2ac6 233f 51d4 5d3c 3dbc 14bd 6772 8bbd
000000d0: 0abb 453f 53bb 9d3d d6a6 53bf 7b9b 883f
000000e0: d09c 9abc 508a 5dbc b5da 3fbd 9068 aabc
000000f0: 96a3 8c3e b92a 6fbc 20cf 993d 252f 1a3f
00000100: 6088 923c 54ff b5bd 3163 f53e ebb3 9cbb
00000110: 69bd 94be bb9d 21bd 1f09 1fbf 49ba cd3e
00000120: 9fe8 f4be aa2d 48bc d2ee 31c0 a51d 023d
00000130: dbd1 63bb 5cc8 00bd fb50 483f 2440 c43e
00000140: 662c adc0 9e19 f93e 1019 f33d a114 9f3f
00000150: 2181 0dc0 7bb9 4f3f 4b05 04bd ae82 3dbc
00000160: 2f59 4fc0 d56b ccbd 6555 163e 4792 0f3f
00000170: fda3 dd3c c1bd 7ac0 78ad 223e 0cd4 62bd
00000180: 4751 933d fd3a b0bd fd9e 34bd 7974 c13e
00000190: 876f c7bb 5049 93bd 0047 7bbc 2c96 54bc
000001a0: caa0 9f3b 29c6 1b3f c3cf 303d a8db 64bc
000001b0: af2d 04bd 62ad 7c3d 6cb8 8e3d f53c f13e
000001c0: 63e3 c73b d5cf 89bc c474 c13c 880c cbbf
000001d0: eb8f b83e acbb 953e e78c 99bc 2c0a 31be
000001e0: d9f4 fabc 083d a040 ac05 2440 baaa 7a40
000001f0: 230b 423d 8da4 c7bf 43e5 da3e ecc9 4dbf
00000200: aa69 83bf 6351 9ebc 227e 28bd a6d3 6dbd
00000210: 9c2b 2abd bf64 70bd 0509 6a3f 7753 373f
00000220: 30b6 e13e 3e6d 9cc0 6a5e 3fbd 6f72 623d
00000230: 9be1 1d3e 1975 b4bf f45c 03bb 89f7 05bd
00000240: f8fa f03d 096c 43bd 09cd 4abd bfd9 78bb
00000250: bab4 e8bc 5706 c63e c6e9 3ebf c2c4 91be
00000260: 17c7 103e 40fc 9dbb 48f1 92bc 613b a53e
00000270: 87a3 413f 7279 81bc 606b e93c bafb 263d
00000280: 9a84 dd3e ab96 59bd 28ed 11bd 5d33 973f
00000290: 59bd 543e d0da 453f 5bc5 97be 4241 d83f
000002a0: 37a2 b2bc dd1a fabf e206 5dbc 937b 993b
000002b0: ab25 363f fe6f f3bb 46fa dc3b ca9d fa3e
000002c0: 8536 5c3c ce62 a83b 9aa0 6cbd 9601 7c3c
000002d0: 1296 98bc d784 2b3f 3223 263d d672 57bd
000002e0: 46bc 97be 4d0d fb3d 7e32 bbbc 373c b7bc
000002f0: bef5 8ebe 4e4c 0841 fe0c 5140 8b34 203f
00000300: e33f 9e3f c622 b03e e88e b940 af06 6f3f
00000310: db79 1e3d 4807 90bc 2840 cfbe e3f9 ef3e
00000320: a04d 1a3e 4546 a8bb bca1 563d 9d47 11bb
00000330: 1bb2 e440 aaa4 58bd 0b78 62bd 45b8 68bd
00000340: 551f 7f3e 1670 ce3e 3518 1bbf 8e5b 953e
00000350: 6bb1 833b 523e dbc0 d090 0c3c c29a 31bb
00000360: 1971 263d 2157 c23b 5608 adbb a512 0a3e
00000370: 24d2 3b3d 9127 9fbc bffa 7e3e 6c41 aebc
00000380: 33fa 8540 b008 ce3e 986a 3abd d5ad 07bb
00000390: 08b0 d03f a6a2 b4be 2703 24bd f9ba 6bbc
000003a0: f670 75be dba5 1e3d 21b0 d13f 829e d93c
000003b0: fad5 36bd befb 4dbf c767 1f3f 76f1 353f
000003c0: a7d4 0c3e 6a2d c43c 2bd4 643f 0e15 373f
000003d0: 90a0 54bf 87d3 823e 5819 83bd d1a3 a2bd
000003e0: 0c38 2c3d fbe1 fe3b 1df5 bdbc c144 ebbc
000003f0: 3d6f 04bf 159f c13b f680 33be 5ace 9a3e

bias f4 [4]
50.780155 39.339363 13.747492 21.634628
00000000: e11e 4b42 825b 1d42 baf5 5b41 b813 ad41
