src/saved_models/agent_9.pth (torch, 540288 bytes, 8 tensors)

0.weight f4 [256, 6]
-0.03302163 -0.3771718 -0.26623365 0.013234168 -0.2725327 -0.32087728 0.062270064 0.10190558
-3.8247778 5.119888 0.11592214 5.7528863 0.24787563 -1.0714893 -1.4132788 3.7833657
0.14006856 3.146359 0.0715388 0.63541234 0.8481437 13.039592 -0.46803 4.651055
0.14054422 0.44750443 -4.822052 2.149478 0.55031997 4.6894226 0.007710444 0.20927936
-2.5690136 7.0593467 0.31839067 5.5899525 0.033360004 -1.1055815 -0.6382602 0.52740484
-0.050851863 5.637077 0.023017246 0.67628604 -3.0787416 3.1364932 -0.054298084 6.3078747
0.015426724 -0.5828702 -1.109254 4.9702764 0.22303037 6.044273 0.14303301 0.022562481
0.29579058 5.8748446 0.38665113 4.3030415 -0.26881856 -0.21182707 -0.35680628 0.40253657
-0.22063604 -0.29758382 -0.29511815 0.092187226 -0.104861945 -0.14248946 -0.36284998 0.014529884
-0.2669564 -0.07099545 -0.20219178 -0.14792562 -0.38418356 -0.17911355 -0.2170047 0.66944796
-19.628368 -4.397638 0.43108326 -5.34028 -0.10490587 -0.4045681 3.8783479 2.2517695
-0.06891642 2.8283753 0.019797921 -0.37724128 -2.9380963 5.4870124 0.24258578 6.260802
-0.5198945 0.7847179 5.9521623 5.1735487 0.33632073 4.394106 0.02429133 -0.111206986
-2.2946744 6.106876 0.2616709 5.879693 0.006430091 -31.975626 8.751485 -34.043636
-35.337547 0.10993499 0.11575447 0.4901462 -5.497944 2.8164244 0.0014615606 -2.3481932
0.06420347 3.0631454 2.1646585 -8.382832 -1.1162326 5.550715 -0.4077778 -0.30264202
-0.0063892603 0.15326172 -0.022849292 -0.33098266 0.01455167 0.007647241 1.2579812 -0.31735805
0.11217379 -12.857924 -0.12667303 0.31848228 -25.882803 -8.022142 0.42429674 -4.1806707
-0.30687648 0.40279752 0.27815044 -0.19903295 -0.3037976 -0.06196037 -0.32051486 -0.36005676
-0.29205683 -0.36491054 -0.2939507 -0.014208436 -0.0025303094 0.6871246 1.2424674 5.6179028
-0.1582998 5.6955185 -0.18036313 -0.16382039 -0.19556937 -0.20903012 -0.35977116 0.060522705
0.023131197 -1.1441108 0.38314593 6.7125783 0.25828663 -9.949696 -0.09002901 -0.3336379
-25.593176 -3.986286 0.50337 -7.8287406 -0.16686353 0.05111566 -0.18636882 0.384233
-0.3419262 0.18197906 0.031036446 0.14801945 -2.8743114 5.4629 0.11735029 5.560037
0.09881565 -0.01136378 -1.3835852 4.5594873 0.099226005 5.486162 0.08690903 1.621766
-0.77793 -9.287492 -0.45559284 7.041313 -0.09071332 0.11892309 -6.769444 -3.416334
0.2512363 -6.8957405 -0.15910363 -0.26827124 -0.9292921 -0.6301905 0.23507379 -7.799206
0.18708247 -0.55414575 2.2390103 -6.48358 0.02863265 -5.3790684 0.17895319 0.004494566
2.2122605 -4.572112 -0.04172865 -5.6423373 0.087353095 0.20278664 1.8572922 -2.402011
0.5538744 -5.7111053 0.025174078 0.15214634 6.355682 -0.59182805 -0.31521025 5.3033714
0.101882 -0.054775286 -2.7015946 2.079733 0.2529314 5.6933513 0.03210845 0.0698509
1.73641 0.16984102 -0.39315388 4.9850655 -0.23988357 -0.624434 -0.5790601 -4.696754
00000000: b041 07bd aa1c c1be c74f 88be 20d4 583c
00000010: 6889 8bbe 074a a4be e50e 7f3d dfb3 d03d
00000020: 29c9 74c0 1fd6 a340 9668 ed3d a517 b840
00000030: 1cd3 7d3e 9026 89bf 52e6 b4bf aa22 7240
00000040: 226e 0f3e f25d 4940 ef82 923d 62aa 223f
00000050: f21f 593f 2ba2 5041 a1a1 efbe 71d5 9440
00000060: d3ea 0f3e 4d1f e53e 404e 9ac0 0c91 0940
00000070: c5e1 0c3f c00f 9640 e4a7 fc3b 544d 563e
00000080: b86a 24c0 2be6 e140 1a04 a33e e4e0 b240
00000090: 80a4 083d b283 8dbf 0565 23bf 0104 073f
000000a0: 0b4a 50bd ef62 b440 aa8e bc3c 1521 2d3f
000000b0: 1a0a 45c0 4ebc 4840 ab67 5ebd 1cda c940
000000c0: 5fc0 7c3c fb36 15bf 09fc 8dbf 810c 9f40
000000d0: 1362 643e af6a c140 3f77 123e f4d4 b83c
000000e0: dd71 973e bafe bb40 23f7 c53e 84b2 8940
000000f0: 96a2 89be 32e9 58be 50af b6be 4619 ce3e
00000100: 6aee 61be e85c 98be ba19 97be a8cc bc3d
00000110: dcc1 d6bd c2e8 11be 79c7 b9be c00e 6e3c
00000120: 82ae 88be 1066 91bd 5d0b 4fbe d079 17be
00000130: b5b3 c4be 8b69 37be 7b36 5ebe f160 2b3f
00000140: e606 9dc1 73b9 8cc0 f2b6 dc3e 93e3 aac0
00000150: e4d8 d6bd 8d23 cfbe da36 7840 fe1c 1040
00000160: 0d24 8dbd 1a04 3540 402f a23c c525 c1be
00000170: c509 3cc0 9b95 af40 6868 783e 7d58 c840
00000180: ce17 05bf 46e3 483f 1d78 be40 b68d a540
00000190: 3b32 ac3e 849c 8c40 9cfe c63c 7dc0 e3bd
000001a0: f2db 12c0 876b c340 baf9 853e 7226 bc40
000001b0: 83b3 d23b 15ce ffc1 1506 0c41 af2c 08c2
000001c0: a659 0dc2 9925 e13d ae10 ed3d 71f4 fa3e
000001d0: 28ef afc0 4c40 3440 d691 bf3a cc48 16c0
000001e0: 1c7d 833d 930a 4440 c489 0a40 1420 06c1
000001f0: b6e0 8ebf 759f b140 40c8 d0be e5f3 9abe
00000200: 005d d1bb a4f0 1c3e 702e bbbc 8f76 a9be
00000210: 216a 6e3c b595 fa3b 8705 a13f c17c a2be
00000220: 5fbb e53d 0fba 4dc1 93b6 01be 1c10 a33e
00000230: fb0f cfc1 b25a 00c1 6c3d d93e 0ec8 85c0
00000240: ea1e 9dbe 7a3b ce3e bc69 8e3e 4bcf 4bbe
00000250: 5c8b 9bbe 28ca 7dbd 861a a4be 5c59 b8be
00000260: 7988 95be 8ed5 babe b580 96be 80ca 68bc
00000270: 8cd3 25bb 66e7 2f3f 2c09 9f3f dcc5 b340
00000280: 5819 22be b041 b640 1db1 38be 88c0 27be
00000290: 5643 48be fe0b 56be ed33 b8be a8e6 773d
000002a0: a37d bd3c 3972 92bf b42b c43e 71cd d640
000002b0: 253e 843e f431 1fc1 2161 b8bd 96d2 aabe
000002c0: d3be ccc1 4f1f 7fc0 dbdc 003f 0b85 fac0
000002d0: 46de 2abe a85e 513d 78d7 3ebe 30ba c43e
000002e0: f310 afbe b858 3a3e 2540 fe3c 6992 173e
000002f0: b8f4 37c0 14d0 ae40 5955 f03d d3eb b140
00000300: dc5f ca3d 262f 3abc 5219 b1bf 52e7 9140
00000310: 0137 cb3d a48e af40 5dfd b13d 0796 cf3f
00000320: 6c26 47bf 9199 14c1 7743 e9be 7052 e140
00000330: e8c7 b9bd f38d f33d 499f d8c0 37a5 5ac0
00000340: 0ba2 803e e8a9 dcc0 10ec 22be d95a 89be
00000350: 16e6 6dbf 2a54 21bf 2fb7 703e 1893 f9c0
00000360: 8c92 3f3e 7fdc 0dbf f24b 0f40 7d79 cfc0
00000370: 058f ea3c 5421 acc0 813f 373e 2747 933b
00000380: ad95 0d40 be4e 92c0 a9eb 2abd 078e b4c0
00000390: 2ee6 b23d 4da7 4f3e c0bb ed3f 8cba 19c0
000003a0: b6ca 0d3f 60c1 b6c0 de39 ce3c 40cc 1b3e
000003b0: bf61 cb40 0b82 17bf 3d63 a1be 38b5 a940
000003c0: 83a7 d03d 0d5c 60bd ede6 2cc0 581a 0540
000003d0: 3980 813e ef2f b640 2684 033d fd0d 8f3d
000003e0: af42 de3f ceea 2d3e 774b c9be a885 9f40
000003f0: 0aa4 75be e8da 1fbf 483d 14bf cf4b 96c0

0.bias f4 [256]
-0.35183537 21.89487 36.944435 19.135597 25.700205 16.707691 36.045834 18.260714
27.240192 33.144028 0.09605873 0.13618618 0.25688893 -8.616957 1.8308414 19.689985
4.5454006 20.987669 33.644234 -47.22371 9.589304 -0.23131149 -30.338545 -12.834938
0.21847719 -0.30758214 -1.2950623 0.15075284 -24.598618 -8.606602 -0.12093392 23.82683
28.599579 -9.88138 -4.0127234 -0.9803504 -9.07257 -22.225988 -20.321413 42.765488
23.197935 38.236458 0.5196 -0.27412975 -0.6283432 0.39591902 -41.174515 -36.397255
-0.018604577 0.5522767 26.297907 10.228161 8.083444 0.03847 0.40533394 3.148795
43.83719 10.517679 -21.60131 0.0074614882 20.187119 26.126331 0.031550616 2.5663104
-6.227971 -0.0712927 9.515924 19.604517 -1.8213133 -0.30015662 -0.4057749 18.92356
0.17195064 24.829157 2.4428003 29.96119 17.689104 -0.4453306 -0.33547515 -26.028727
0.0042295456 0.32163888 29.359293 12.557424 -0.3286634 0.24504036 -0.10266355 22.822649
7.8735275 33.711853 -12.749578 -0.13670243 -0.19820356 34.37828 32.47451 34.25294
0.3562991 16.266676 0.18909782 8.697624 0.3149926 -22.783333 2.3841088 30.571053
-30.971235 29.857433 -23.676563 -1.3677181 -0.14482352 38.496822 36.79189 -0.0074162185
-27.640821 -0.45626476 0.121512294 7.801077 35.19749 0.11871266 0.043170154 -1.1726134
-1.2945955 3.2666144 -16.163523 -29.184475 -0.03487137 -28.859095 -0.0016012124 -48.494545
17.479916 -0.10555622 4.539452 -10.937774 0.2280389 -7.6206617 -18.076914 28.025457
-0.061608553 -39.34042 30.852282 0.19537288 6.020167 -0.2799598 47.514523 26.376043
27.11605 1.4497347 -8.465672 4.579946 37.164356 -33.99526 -41.1598 33.070694
17.780212 -26.73725 -18.446728 -29.742577 0.2239567 0.3973112 0.14485338 -3.6317778
23.851202 0.11954081 -0.22846836 -35.92341 -0.40813863 12.558564 63.9429 -25.784885
0.24553007 17.83306 42.74816 45.219334 48.963093 0.12827356 0.1424067 23.69268
-32.84129 -0.31567463 16.637766 -21.07012 -32.822407 -42.099216 38.606075 -0.40664974
-0.7789789 5.5170736 0.21676475 -30.075216 -27.73668 24.267962 0.26447427 30.672047
-0.037812352 -0.23664685 -8.953887 5.0804276 28.618416 23.902426 3.9019675 0.10233137
-29.309969 33.321617 -26.98647 16.367285 20.374582 2.0630515 -17.777225 -45.155346
24.050539 18.656178 -0.008432418 0.22887598 -34.71414 25.87275 23.466282 -13.919841
0.2813729 21.614584 -0.20343901 -13.076581 7.9539075 8.817825 11.255891 43.959946
14.111542 24.759966 0.3908239 -17.19427 -0.8065124 -0.35277578 20.222267 -0.08434194
31.4803 23.563353 -38.435856 35.821846 -29.453743 -4.4507174 0.22321796 -13.263536
-21.680843 18.206514 -28.14757 18.392685 -4.7853193 2.777488 0.1450833 15.054268
-43.74729 0.0723277 -26.800926 1.1779189 -0.2805526 -31.556416 -4.68005 8.421342
00000000: c423 b4be b228 af41 1ac7 1342 b415 9941
00000010: 059a cd41 5aa9 8541 ef2e 1042 f115 9241
00000020: eaeb d941 7c93 0442 70ba c43d 6474 0b3e
00000030: f286 833e 0edf 09c1 0359 ea3f 1785 9d41
00000040: ec73 9140 bfe6 a741 b293 0642 14e5 3cc2
00000050: ca6d 1941 ebdc 6cbe 57b5 f2c1 e85b 4dc1
00000060: 7cb8 5f3e 687b 9dbe 9ac4 a5bf f45e 1a3e
00000070: f8c9 c4c1 a4b4 09c1 34ac f7bd 599d be41
00000080: f0cb e441 221a 1ec1 3b68 80c0 3ef8 7abf
00000090: 3f29 11c1 d3ce b1c1 4192 a2c1 dc0f 2b42
000000a0: 5f95 b941 22f2 1842 8104 053f bc5a 8cbe
000000b0: 1adb 20bf e6b5 ca3e b4b2 24c2 ca96 11c2
000000c0: a068 98bc 0162 0d3f 1d62 d241 8ca6 2341
000000d0: c955 0141 b892 1d3d ee87 cf3e db85 4940
000000e0: 4859 2f42 6a48 2841 7ccf acc1 807f f43b
000000f0: 387f a141 ba02 d141 383b 013d 6e3e 2440
00000100: 8a4b c7c0 e801 92bd 3a41 1841 0dd6 9c41
00000110: cb20 e9bf 21ae 99be bac1 cfbe 7363 9741
00000120: d413 303e 1da2 c641 d756 1c40 84b0 ef41
00000130: 4983 8d41 5f02 e4be 66c3 abbe d53a d0c1
00000140: 0098 8a3b daad a43e d5df ea41 35eb 4841
00000150: 9246 a8be dceb 7a3e 4441 d2bd c994 b641
00000160: f0f3 fb40 f0d8 0642 46fe 4bc1 b9fb 0bbe
00000170: e0f5 4abe 5c83 0942 e6e5 0142 0303 0942
00000180: d66c b63e 2722 8241 dca2 413e 7829 0b41
00000190: b646 a13e 4444 b6c1 3d95 1840 8491 f441
000001a0: 17c5 f7c1 06dc ee41 9a69 bdc1 6311 afbf
000001b0: 9e4c 14be bffc 1942 e52a 1342 c003 f3bb
000001c0: 6720 ddc1 899b e9be 70db f83d 6ca2 f940
000001d0: 3bca 0c42 a01f f33d 30d3 303d 3218 96bf
000001e0: 4eb5 a5bf 3610 5140 e54e 81c1 ce79 e9c1
000001f0: 48d5 0ebd 6ddf e6c1 c6df d1ba 6afa 41c2
00000200: ded6 8b41 dc2d d8bd 3143 9140 1f01 2fc1
00000210: 0883 693e 76dc f3c0 859d 90c1 2334 e041
00000220: 4059 7cbd 975c 1dc2 79d1 f641 d40f 483e
00000230: 35a5 c040 e456 8fbe df0e 3e42 2302 d341
00000240: aced d841 e890 b93f 6473 07c1 eb8e 9240
00000250: 4da8 1442 25fb 07c2 a3a3 24c2 6448 0442
00000260: e03d 8e41 e3e5 d5c1 e692 93c1 ccf0 edc1
00000270: e854 653e 606c cb3e 7254 143e 0c6f 68c0
00000280: 43cf be41 d0d1 f43d 9cf3 69be 92b1 0fc2
00000290: 8cf7 d0be e1ef 4841 88c5 7f42 7247 cec1
000002a0: 3c6c 7b3e 1baa 8e41 1efe 2a42 99e0 3442
000002b0: 35da 4342 255a 033e 10d3 113e 9c8a bd41
000002c0: 7b5d 03c2 1ba0 a1be 251a 8541 9b8f a8c1
000002d0: 254a 03c2 9965 28c2 9f6c 1a42 6534 d0be
000002e0: 296b 47bf de8b b040 94f7 5d3e 0b9a f0c1
000002f0: b8e4 ddc1 c924 c241 2c69 873e 5a60 f541
00000300: 20e1 1abd 8d53 72be 1f43 0fc1 dd92 a240
00000310: 84f2 e441 2b38 bf41 d6b9 7940 1c93 d13d
00000320: d17a eac1 5649 0542 4ae4 d7c1 33f0 8241
00000330: 25ff a241 0909 0440 c237 8ec1 139f 34c2
00000340: 8167 c041 da3f 9541 2028 0abc 775e 6a3e
00000350: 48db 0ac2 64fb ce41 f2ba bb41 abb7 5ec1
00000360: 1c10 903e abea ac41 5152 50be ad39 51c1
00000370: 6986 fe40 d015 0d41 2118 3441 fcd6 2f42
00000380: e0c8 6141 6914 c641 121a c83e dd8d 89c1
00000390: 9977 4ebf 079f b4be 34c7 a141 78bb acbd
000003a0: a8d7 fb41 bf81 bc41 51be 19c2 9249 0f42
000003b0: 44a1 ebc1 476c 8ec0 4093 643e 7237 54c1
000003c0: 5e72 adc1 f1a6 9141 392e e1c1 3824 9341
000003d0: 5621 99c0 5dc2 3140 b790 143e 48de 7041
000003e0: 3afd 2ec2 8c20 943d 4c68 d6c1 0cc6 963f
000003f0: 97a4 8fbe 8a73 fcc1 f8c2 95c0 d1bd 0641

2.weight f4 [256, 256]
-0.03655111 -0.02003899 0.02721136 0.046652198 -0.06404748 -0.035113927 -0.058230594 0.0015287191
-0.03903042 0.056609027 -0.011745922 0.044015713 0.039731994 0.035884336 -0.061618388 -0.049189713
0.017966066 -0.006028267 0.02481649 0.0039399043 -0.008895196 -0.026775904 -0.03390174 -0.027270032
0.0030656606 -0.01928299 0.05347257 -0.024733663 -0.018515365 -0.06594232 0.021121591 -0.05429876
-0.03070626 -0.03672346 0.021949438 0.03991598 -0.04710494 0.03506715 0.01248726 -0.041363545
-0.030274224 -0.019220643 -0.015123859 0.006372355 -0.016395645 -0.0074619055 -0.036412135 -0.022237912
-0.015579216 0.018434182 -0.04626935 0.034122743 -0.0003228259 -0.036270916 0.032940947 -0.024796227
0.038329348 -0.018452434 0.052583817 0.035981804 0.028659413 0.004442583 -0.018258728 0.0035444913
-0.053933863 0.052610986 -0.05043869 -0.05262779 0.031488657 0.060407892 0.041459158 0.039193504
-0.04836124 0.060182445 0.044577695 0.032189887 -0.044250775 0.021216251 -0.033469968 -0.06549603
-0.03264203 -0.059887774 -0.058777887 0.020158283 -0.054743312 -0.03845717 -0.04733721 -0.059397355
-0.03968707 0.029591747 0.010593243 -0.054449357 0.011941403 0.027937721 0.046576276 0.010297065
0.05826874 -0.059611946 0.0369848 0.052188963 0.0326432 0.036015294 0.013639839 0.048684377
-0.048490897 0.014734305 -0.061158437 0.04257451 0.005418822 -0.027133277 0.05412544 0.01965084
0.05445898 0.05767726 0.0069017336 0.0570533 -0.00030356285 -0.053752415 -0.01428967 0.021336924
0.01755465 -0.037373923 -0.028657354 -0.04676853 -0.05580263 -0.013070025 -0.05528209 0.016045185
-0.0040981793 0.034481034 -0.046028584 -0.047985427 0.012068376 0.055600077 -0.057937294 -0.029224506
0.03012769 0.015935594 -0.0065062507 0.0087670535 0.045976534 -0.05125189 -0.061107233 -0.034599457
-0.046664953 -0.014936743 0.012670163 0.045651585 0.02611437 0.028917085 0.040418524 0.035524808
-0.043846868 -0.055952203 -0.027061641 0.007859819 0.023268111 -0.002618961 0.05946511 0.019211404
-0.0263095 0.03892573 0.0025928468 -0.049975533 0.044922147 0.034798604 0.0023557022 -0.008645764
0.052767605 -0.03630823 -0.0029822886 -0.027628794 -0.050808035 -0.057913303 0.015804812 0.019274738
-0.059340782 -0.019586563 -0.043755442 -0.015619423 -0.027373858 0.03617404 0.037624985 -0.030893296
-0.0034894338 -0.016886983 -0.011576943 -0.03440712 0.03252005 -0.034363966 0.034690402 0.053808708
0.05720523 -0.015338771 -0.010998465 -0.041808154 -0.010233689 -0.02028149 -0.035503455 -0.04047733
-0.06228823 -0.04435116 0.054872513 -0.0048939735 -0.010820229 0.050451305 0.0016252412 0.016172228
-0.02186174 -0.06314796 0.057930388 0.007684651 -0.053074554 -0.04725491 -0.0396638 -0.017061455
0.016779214 0.043076698 -0.061080866 0.01258214 -0.008030341 0.055818807 -0.041314766 -0.062383376
0.040028267 -0.043341722 -0.03989725 0.040843014 0.03400646 0.018208325 -0.033912636 0.039565504
-0.031090856 0.039804995 0.023910346 -0.015694149 -0.024190553 0.015773762 0.002494149 -0.042803008
-0.05564287 -0.05263139 0.043327056 0.044700496 -0.020708755 0.026776595 0.058994032 0.024684826
-0.06523975 0.023423769 0.007503915 -0.056784272 0.048818395 -0.014752127 0.029195054 -0.011179555
00000000: 9eb6 15bd cf28 a4bc 5cea de3c 6016 3f3d
00000010: 532b 83bd 9fd3 0fbd 3483 6ebd 4d5f c83a
00000020: 5dde 1fbd dede 673d f871 40bc d249 343d
00000030: 04be 223d 74fb 123d 9063 7cbd 277b 49bd
00000040: 922d 933c c588 c5bb f44b cb3c 501a 813b
00000050: 28bd 11bc 2459 dbbc 8ddc 0abd 6765 dfbc
00000060: 40e9 483b 5cf7 9dbc 0e06 5b3d 409e cabc
00000070: 89ad 97bc c40c 87bd 3007 ad3c 6068 5ebd
00000080: b28b fbbc 576b 16bd 4fcf b33c f07e 233d
00000090: 1cf1 40bd 92a2 0f3d 5d97 4c3c d26c 29bd
000000a0: a601 f8bc 9c74 9dbc 10ca 77bc 30cf d03b
000000b0: 2950 86bc 0083 f4bb e424 15bd 482c b6bc
000000c0: f83f 7fbc 4803 973c ee84 3dbd 4ac4 0b3d
000000d0: f540 a9b9 d090 14bd 16ed 063d 7521 cbbc
000000e0: 3cff 1c3d 8f29 97bc 2162 573d a861 133d
000000f0: 25c7 ea3c 1693 913b 5493 95bc b24a 683b
00000100: c1e9 5cbd 9e7e 573d cd98 4ebd 3d90 57bd
00000110: 40fa 003d 446e 773d 14d1 293d 5e89 203d
00000120: 7016 46bd de81 763d 1a97 363d 8bd9 033d
00000130: 4d40 35bd b4cd ad3c ce17 09bd c822 86bd
00000140: a6b3 05bd e24c 75bd 15c1 70bd fc22 a53c
00000150: 863a 60bd 4485 1dbd aae4 41bd a44a 73bd
00000160: e98e 22bd 646a f23c 488f 2d3c 4a06 5fbd
00000170: e0a5 433c a6dd e43c c4c6 3e3d 05b5 283c
00000180: 34ab 6e3d a82b 74bd 607d 173d 18c4 553d
00000190: e0b4 053d c684 133d a279 5f3c 4569 473d
000001a0: 649e 46bd 2868 713c 4581 7abd 9c62 2e3d
000001b0: 6090 b13b 9b46 debc a3b2 5d3d ccfa a03c
000001c0: 6110 5f3d fe3e 6c3d f027 e23b b9b0 693d
000001d0: 8427 9fb9 7e2b 5cbd 381f 6abc c6ca ae3c
000001e0: c5ce 8f3c 6615 19bd d4c2 eabc 5c90 3fbd
000001f0: 4c91 64bd a823 56bc 796f 62bd 3171 833c
00000200: 054a 86bb fc3b 0d3d 7888 3cbd 5e8c 44bd
00000210: 70ba 453c e8bc 633d a84f 6dbd 3b68 efbc
00000220: 58ce f63c 5d8b 823c 6332 d5bb b0a3 0f3c
00000230: e451 3c3d 80ed 51bd 944b 7abd 29b8 0dbd
00000240: c023 3fbd 3eb9 74bc 8496 4f3c 28fd 3a3d
00000250: ceed d53c 86e3 ec3c e58d 253d 7682 113d
00000260: c698 33bd 232e 65bd 60b0 ddbc 78c6 003c
00000270: c49c be3c e0a2 2bbb b091 733d 3c61 9d3c
00000280: 0587 d7bc 9670 1f3d c0ec 293b 25b3 4cbd
00000290: 4900 383d fb88 0e3d 2062 1a3b f6a6 0dbc
000002a0: d822 583d f0b7 14bd 8072 43bb c855 e2bc
000002b0: 161c 50bd 8036 6dbd 1879 813c 0ee6 9d3c
000002c0: 520f 73bd 0074 a0bc e838 33bd 9ce8 7fbc
000002d0: 243f e0bc 3b2b 143d a81c 1a3d f013 fdbc
000002e0: fcae 64bb 9256 8abc 38ad 3dbc 7bee 0cbd
000002f0: be33 053d 3bc1 0cbd 8617 0e3d 8566 5c3d
00000300: 0850 6a3d 784f 7bbc e832 34bc 073f 2bbd
00000310: 34ab 27bc 5e25 a6bc 126c 11bd 8fcb 25bd
00000320: f121 7fbd 90a9 35bd 00c2 603d a05d a0bb
00000330: 5447 31bc 07a6 4e3d 0c06 d53a 9f7b 843c
00000340: 6417 b3bc b853 81bd 6a48 6d3d 86cf fb3b
00000350: b464 59bd 5d8e 41bd 8276 22bd 77c4 8bbc
00000360: 9074 893c 3171 303d ee2f 7abd 5225 4e3c
00000370: b191 03bc 43a2 643d ac39 29bd b685 7fbd
00000380: aef4 233d 1787 31bd 4c6b 23bd 014b 273d
00000390: 5c4a 0b3d a029 953c fae7 0abd 700f 223d
000003a0: 40b2 febc 900a 233d a1df c33c 0491 80bc
000003b0: 442b c6bc fa37 813c e074 233b 3552 2fbd
000003c0: c7e9 63bd 0394 57bd b677 313d de17 373d
000003d0: 68a5 a9bc 975a db3c baa3 713d d537 ca3c
000003e0: 6b9c 85bd 34e3 bf3c 67e3 f53b a096 68bd
000003f0: ccf5 473d e8b2 71bc 772a ef3c 742a 37bc

2.bias f4 [256]
0.029618967 0.08024586 -0.008253768 -0.041124567 0.023902528 -0.71908236 -54.354427 39.206085
-0.027292266 39.68161 0.0072927894 0.014635625 27.540396 30.057981 -9.588533 29.89417
24.86286 0.029059947 34.304535 -0.028566144 0.0662331 -0.008536876 -0.03084532 -30.53172
-43.736343 -0.013468208 -0.0050698817 0.02372095 9.352134 0.020591432 -0.086391024 32.366673
-0.029911939 0.008712923 -0.053206593 1.1027299 -0.036073785 0.013404921 35.632366 35.635094
-37.715572 -33.610622 -37.29589 17.74424 15.929461 -10.628379 -0.035223715 8.463953
0.0011024103 -0.012412757 -0.000860751 0.06873712 38.34347 -0.015058725 -0.019893698 0.035066985
19.813517 0.033776753 32.417587 0.013041379 -0.01293154 -0.051828995 -0.060048506 0.04271182
0.054645427 0.013490639 0.045257673 -0.07597186 -0.053928576 -0.038285624 36.665047 -42.998173
35.853504 -0.091600426 0.032764554 -3.41986 0.007223506 3.9285684 0.017073387 10.846028
33.95231 26.927273 -0.055935666 -0.008790341 -0.043623216 44.599823 -0.060090195 0.045000352
-0.003895772 36.851295 35.8472 36.481857 0.025052946 -58.690342 0.047671843 -0.055806905
25.930916 0.046975628 33.980556 0.050809238 34.588936 0.033301696 -0.005536787 -0.07225103
-0.06341886 37.2841 -20.756907 40.34204 0.027133727 -0.04709596 -0.028141767 -0.054180983
3.1000687e-05 34.98729 -0.014064667 -0.09621964 40.18538 -0.055033054 -0.0775559 -55.12133
0.037931178 -0.016941847 21.564188 -0.06483228 36.993 -3.0459228 35.5346 0.032723375
0.41499567 -0.059248976 -34.446457 -30.707312 -47.599754 30.901379 -0.03001428 -0.058791038
0.032888196 -0.03899565 37.838165 0.017060697 -0.049948823 -0.053458516 -12.143164 -27.680977
-0.04203342 -0.032426763 41.259407 -5.8205476 -0.05641348 0.026714524 36.5715 15.513824
37.50567 39.6248 -36.8966 32.193104 34.452557 33.976307 -39.93308 42.237785
33.323837 32.058933 0.0024147183 -27.952026 37.458225 -0.0036074826 -0.048687294 0.008817277
31.629435 0.018503794 -0.047838848 0.013559175 14.453884 1.7979736 9.365549 37.933575
35.176224 -0.0857042 -0.00034241786 0.038972743 30.37824 0.026958415 0.036775667 35.662643
-60.61534 -53.531914 -0.014544163 0.04829885 47.55502 -0.06487446 39.166557 34.174763
-0.00017399341 -0.06448392 0.043948833 -0.0135647375 0.029359622 36.983772 0.006071374 6.6074467
-0.017130041 -0.0026513531 40.70948 0.057138376 -22.251291 -0.046860214 0.091004215 -0.031756274
32.82754 -6.6763406 0.015641136 46.11415 37.648376 35.792625 -44.863716 8.314262
-0.061149694 30.873175 -0.069760524 36.59095 -0.017821869 -0.0027432025 0.025057603 -0.045701575
-0.029218547 -30.792538 33.918118 -0.015813109 28.176607 -0.022424094 0.010053443 -0.03337491
37.852917 11.86776 37.175957 -0.058830358 0.015953908 -0.06640969 -0.030545278 -0.007860523
29.232737 26.803986 -9.885704 0.044110406 -0.033406887 0.02895987 43.115726 4.5991035
0.019366477 47.27233 -1.9385492 27.077936 5.0834017 -41.78694 0.02330689 14.652387
00000000: 7aa3 f23c f157 a43d d03a 07bc 3c72 28bd
00000010: 3ccf c33c c815 38bf ef6a 59c2 08d3 1c42
00000020: 0894 dfbc f8b9 1e42 5af8 ee3b 43ca 6f3c
00000030: bb52 dc41 bf76 f041 a26a 19c1 4327 ef41
00000040: 23e7 c641 200f ee3c d837 0942 8c03 eabc
00000050: 38a5 873d 41de 0bbc 53af fcbc f640 f4c1
00000060: 04f2 2ec2 c2a9 5cbc 4021 a6bb 7052 c23c
00000070: 57a2 1541 5daf a83c c7ed b0bd 7977 0142
00000080: e209 f5bc a6c0 0e3c 28ef 59bd 4126 8d3f
00000090: 1bc2 13bd 50a0 5b3c 8b87 0e42 568a 0e42
000000a0: bfdc 16c2 4771 06c2 fe2e 15c2 34f4 8d41
000000b0: 12df 7e41 d70d 2ac1 be46 10bd 5a6c 0741
000000c0: c07e 903a e05e 4bbc 06a4 61ba 0cc6 8c3d
000000d0: b75f 1942 dfb8 76bc 1cf8 a2bc 66a2 0f3d
000000e0: 1582 9e41 7e59 0a3d 9cab 0142 82ab 553c
000000f0: cfde 53bc a44a 54bd 6cf5 75bd 97f2 2e3d
00000100: e2d3 5f3d d707 5d3c 1c60 393d 2297 9bbd
00000110: 36e4 5cbd 63d1 1cbd 02a9 1242 21fe 2bc2
00000120: fd69 0f42 0199 bbbd 2034 063d fcde 5ac0
00000130: 29b3 ec3b aa6d 7b40 7ddd 8b3c 5589 2d41
00000140: 2acf 0742 0e6b d741 cc1c 65bd 5d05 10bc
00000150: 42ae 32bd 3866 3242 2321 76bd 4a52 383d
00000160: 3550 7fbb ba67 1342 8863 0f42 6ced 1142
00000170: d63b cd3c e9c2 6ac2 8d43 433d c895 64bd
00000180: 8472 cf41 8469 403d 17ec 0742 591d 503d
00000190: 125b 0a42 5c67 083d f06d b5bb 59f8 93bd
000001a0: bfe1 81bd eb22 1542 250e a6c1 405e 2142
000001b0: 8d47 de3c b1e7 40bd 9089 e6bc e1ec 5dbd
000001c0: bc06 0238 fcf2 0b42 7d6f 66bc cd0e c5bd
000001d0: d4bd 2042 576a 61bd a1d5 9ebd 3e7c 5cc2
000001e0: b95d 1b3d a1c9 8abc 7583 ac41 c9c6 84bd
000001f0: d5f8 1342 66f0 42c0 6e23 0e42 f208 063d
00000200: 507a d43e 0eaf 72bd 2cc9 09c2 93a8 f5c1
00000210: 2666 3ec2 0636 f741 82e0 f5bc dfce 70bd
00000220: c6b5 063d e7b9 1fbd 485a 1742 e0c2 8b3c
00000230: 2397 4cbd 51f7 5abd 664a 42c1 a472 ddc1
00000240: 3c2b 2cbd edd1 04bd a209 2542 ed41 bac0
00000250: d211 67bd 6bd8 da3c 3749 1242 a038 7841
00000260: ce05 1642 cc7f 1e42 1e96 13c2 bdc5 0042
00000270: 6bcf 0942 bde7 0742 79bb 1fc2 7ef3 2842
00000280: 9c4b 0542 593c 0042 4040 1e3b c09d dfc1
00000290: 39d5 1542 846b 6cbb 546c 47bd 5776 103c
000002a0: 1509 fd41 4595 973c abf2 43bd 4d27 5e3c
000002b0: 1c43 6741 0024 e63f 4ad9 1541 fbbb 1742
000002c0: 74b4 0c42 af85 afbd 8c86 b3b9 e2a1 1f3d
000002d0: a306 f341 e5d7 dc3c 15a2 163d 8ca6 0e42
000002e0: 1c76 72c2 ae20 56c2 a44a 6ebc 04d5 453d
000002f0: 5738 3e42 e7dc 84bd 8eaa 1c42 f5b2 0842
00000300: 0072 36b9 2510 84bd b103 343d a23e 5ebc
00000310: 9783 f03c 62ef 1342 60f2 c63b 3470 d340
00000320: 4d54 8cbc 53c2 2dbb 82d6 2242 ee09 6a3d
00000330: a502 b2c1 7ff0 3fbd 6b60 ba3d de12 02bd
00000340: 674f 0342 95a4 d5c0 d721 803c e474 3842
00000350: f097 1642 a62b 0f42 7274 33c2 3807 0541
00000360: 1a78 7abd 43fc f641 9bde 8ebd 225d 1242
00000370: 2bff 91bc 4dc7 33bb 9a45 cd3c 9331 3bbd
00000380: bc5b efbc 1e57 f6c1 27ac 0742 7e8a 81bc
00000390: b169 e141 bcb2 b7bc 32b7 243c 21b4 08bd
000003a0: 6369 1742 58e2 3d41 2eb4 1442 1af8 70bd
000003b0: c5b1 823c ce01 88bd 173a fabc 6cc9 00bc
000003c0: a5dc e941 906e d641 d82b 1ec1 1dad 343d
000003d0: a9d5 08bd 403d ed3c 8176 2c42 db2b 9340
000003e0: 72a6 9e3c de16 3d42 6122 f8bf 9d9f d841
000003f0: 3aab a240 d425 27c2 17ee be3c 2d70 6a41

4.weight f4 [256, 256]
-0.010769845 -0.045150306 -0.057772845 -0.038632944 0.0019339514 2.1550214 0.6644395 -0.062912546
0.05618148 0.24458656 -0.0069494764 0.000805704 0.19148223 0.16770637 3.042094 -0.052006304
0.29821372 0.0543366 -0.053499278 -0.008597091 -0.028910719 -0.0032144317 -0.024292849 2.6507502
1.5191885 0.007818172 0.021769434 0.0057915673 -0.31329623 0.0352591 0.051388644 0.35577786
0.07147189 0.011485007 0.0040276693 0.07180117 -0.02233699 0.062272027 0.42730924 -1.433871
0.3734064 0.39337704 0.3990405 0.6805981 0.55913824 -0.0051379367 0.017790232 -0.29108492
0.044708923 -0.017442003 0.0151735395 0.029861588 -0.025699487 0.030029744 -0.007147953 -0.016798794
-9.577004 -0.0119442865 -0.0075340606 -0.061522335 -0.055003718 -0.049153436 -0.04760819 0.012120788
-0.035466038 0.05743725 -0.0061743422 -0.014587104 -0.056133017 -0.059766427 -0.1032999 0.69494754
-0.80335426 0.04681527 0.026086956 -2.268899 0.020028159 -0.027998665 0.0032289757 0.45932695
-3.6154249 -4.716668 -0.058117054 -0.048662 -0.013374485 -3.1314583 -0.01193804 -0.0104172
-0.04407742 -0.3211048 -1.8461573 -1.735295 0.0030917306 0.6079551 -0.025256079 0.00678854
-0.92384386 -0.012810805 -0.17791761 0.019401595 -0.024227895 -0.028478285 -0.039337978 0.009162631
-0.012378268 -0.030551966 0.5507328 -13.327523 -0.04277911 0.015419774 -0.0036606118 0.04653702
-0.017334813 -7.3311777 -0.02701647 -0.0065920497 -0.85152537 0.04149697 -0.051607925 0.5136686
0.037697863 -0.07256277 0.27405554 0.0031447634 -0.92900157 1.1933888 -1.4732187 -0.0031751618
0.15980048 0.046532918 0.49125385 0.26314452 0.31305462 -0.35034347 -0.003472041 0.036311552
0.053243577 -0.042003207 -0.9372451 0.0052866787 0.03281804 -0.06433597 -0.141273 6.6130414
0.03754004 -0.035593018 -4.76506 -2.3385677 -0.003075781 0.042603858 -2.9137623 0.27437657
-1.0011725 -0.100324325 0.44290826 -0.20455644 -0.06430711 -0.17316365 0.40248498 -0.9381778
-0.04556764 -0.33123663 0.04795271 -0.30493456 0.41658688 0.037154768 -0.016249964 0.018257339
-2.6242566 -0.060952008 -0.030110724 0.012254551 -1.5366858 -0.1108573 0.40390867 -0.26902685
-1.0268376 0.013097749 0.016073182 0.07138641 0.38939926 -0.00021289915 -0.01613865 -5.2053304
1.7098908 2.4448643 -0.03935381 -0.04586322 0.10882863 -0.013007268 -1.123305 -0.7217443
0.014119111 -0.06070183 -0.003583731 -0.03961471 0.02991207 -0.22946653 -0.019423407 0.2695247
0.05637347 -0.055092342 -1.1499968 0.0046279803 0.19752508 -0.018276967 0.011574871 -0.0155297
-0.5635615 0.047142953 -0.0056121745 -1.61312 -1.4574702 -0.107161015 0.28032628 0.9205812
-0.040220138 -0.018379375 0.014192787 -0.23689519 -0.011907071 -0.004882873 0.03790918 0.006587184
-0.057428896 0.7502434 -1.2572737 -0.020194892 0.29801035 -0.002593562 -0.06766632 -0.03495389
-0.8119949 0.17830016 -5.3811874 0.03583751 -0.015623658 -0.048114143 0.027987963 -0.035869546
-0.47310293 0.2887733 0.11929467 -0.061475337 -0.048054893 0.05428029 -1.7577039 0.9711784
0.024941474 -1.2452618 -0.38730508 -2.112582 0.044413693 0.41433588 -0.033465352 0.24263662
00000000: 0174 30bc 87ef 38bd 38a3 6cbd 943d 1ebd
00000010: a47c fd3a dfeb 0940 b518 2a3f 4bd8 80bd
00000020: 8d1e 663d e674 7a3e 6fb8 e3bb e135 533a
00000030: eb13 443e 38bb 2b3e abb1 4240 9004 55bd
00000040: 78af 983e 0e90 5e3d 0f22 5bbd d0da 0cbc
00000050: 2cd6 ecbc 37a9 52bb cc01 c7bc e4a5 2940
00000060: c574 c23f ca17 003c d055 b23c 30c7 bd3b
00000070: 5d68 a0be d96b 103d e67c 523d 8428 b63e
00000080: db5f 923d 9c2b 3c3c 8afa 833b 7e0c 933d
00000090: 10fc b6bc f410 7f3d 47c8 da3e 1689 b7bf
000000a0: 202f bf3e b768 c93e 094f cc3e ad3b 2e3f
000000b0: af23 0f3f 235c a8bb d2bc 913c 1509 95be
000000c0: b420 373d 88e2 8ebc 709a 783c 4aa0 f43c
000000d0: bb87 d2bc f000 f63c 6039 eabb a09d 89bc
000000e0: 693b 19c1 f8b1 43bc 48e0 f6bb d8fe 7bbd
000000f0: 944b 61bd 1d55 49bd ce00 43bd 4596 463c
00000100: d644 11bd 5243 6b3d 2352 cabb c0fe 6ebc
00000110: bceb 65bd a4cd 74bd e68e d3bd 15e8 313f
00000120: a0a8 4dbf 5ec1 3f3d 50b4 d53c a435 11c0
00000130: 1812 a43c 755d e5bc 399d 533b e72c eb3e
00000140: 1f63 67c0 f2ee 96c0 260c 6ebd ce51 47bd
00000150: a820 5bbc d069 48c0 c597 43bc e7ac 2abc
00000160: 868a 34bd d967 a4be e24e ecbf 261e debf
00000170: a29e 4a3b f2a2 1b3f d6e5 cebc 6772 de3b
00000180: 0881 6cbf 69e4 51bc 0930 36be 18f0 9e3c
00000190: 9479 c6bc 4b4b e9bc dc20 21bd dc1e 163c
000001a0: 38ce 4abc 1e48 fabc d3fc 0c3f 893d 55c1
000001b0: 2639 2fbd 38a3 7c3c e0e6 6fbb 9a9d 3e3d
000001c0: bd01 8ebc 0299 eac0 a551 ddbc 1f02 d8bb
000001d0: 91fd 59bf baf8 293d d562 53bd c97f 033f
000001e0: 1369 1a3d ca9b 94bd 0251 8c3e 6018 4e3b
000001f0: 0cd3 6dbf f7c0 983f 6e92 bcbf 6016 50bb
00000200: bda2 233e 4d99 3e3d a085 fb3e e1ba 863e
00000210: b248 a03e 3860 b3be 2f8b 63bb 6cbb 143d
00000220: f015 5a3d 8e0b 2cbd 4bef 6fbf e03b ad3b
00000230: 366c 063d 94c2 83bd dfa9 10be 099e d340
00000240: 96c3 193d fcc9 11bd 5f7b 98c0 18ab 15c0
00000250: 0b93 49bb 6281 2e3d 157b 3ac0 167b 8c3e
00000260: 6c26 80bf d776 cdbd dfc4 e23e 3e77 51be
00000270: 72b3 83bd d051 31be 8312 ce3e 6c2c 70bf
00000280: 22a5 3abd d997 a9be 106a 443d 6220 9cbe
00000290: e04a d53e 992f 183d a51e 85bc 6a90 953c
000002a0: d2f3 27c0 d0a8 79bd c4aa f6bc 50c7 483c
000002b0: 1fb2 c4bf 2709 e3bd 1ecd ce3e e3bd 89be
000002c0: 6a6f 83bf f197 563c e8ab 833c 0a33 923d
000002d0: 575f c73e ae3d 5fb9 3435 84bc 1192 a6c0
000002e0: b4dd da3f a878 1c40 7631 21bd 12db 3bbd
000002f0: 8be1 de3d 701c 55bc 75c8 8fbf 3cc4 38bf
00000300: d853 673c 7ba2 78bd 07dd 6abb 0943 22bd
00000310: 280a f53c 46f9 6abe d61d 9fbc 24ff 893e
00000320: dee7 663d 82a8 61bd 1833 93bf 50a6 973b
00000330: 0444 4a3e 94b9 95bc 87a4 3d3c 4870 7ebc
00000340: 9145 10bf f818 413d 55e6 b7bb b77a cebf
00000350: 628e babf 3c77 dbbd ed86 8f3e 36ab 6b3f
00000360: dfbd 24bd 5890 96bc dd88 683c a794 72be
00000370: e015 43bc 8200 a0bb a846 1b3d 4ed9 d73b
00000380: 903a 6bbd f40f 403f 58ee a0bf c26f a5bc
00000390: d094 983e c0f8 29bb a494 8abd cf2b 0fbd
000003a0: e6de 4fbf 5194 363e b032 acc0 5aca 123d
000003b0: 5ffa 7fbc 5613 45bd 0347 e53c f2eb 12bd
000003c0: 8c3a f2be 18da 933e c450 f43d 90cd 7bbd
000003d0: 35d5 44bd 0255 5e3d 71fc e0bf 269f 783f
000003e0: 1052 cc3c bd64 9fbf da4c c6be 8b34 07c0
000003f0: 22eb 353d d523 d43e f712 09bd bc75 783e

4.bias f4 [256]
-33.07058 27.216925 0.03727543 -0.014201396 -0.06138875 -38.487213 -0.046267282 27.235792
-0.074577846 -0.07133422 -32.441486 -0.072731495 0.023701549 27.244024 0.020809928 0.054554105
28.919437 -0.12639442 39.54551 0.05864274 29.136513 0.0018164277 -0.003630687 0.005167414
17.429304 0.0011006284 -0.004420094 -0.0168308 -0.5567293 13.685603 0.0068692164 -0.02509013
-0.11785913 23.96178 -18.74085 -0.07341817 -0.023417266 -0.080911614 20.642115 -0.004181875
-0.09637934 43.192574 -0.032498967 -0.055714853 3.1099806 33.780735 21.100382 27.2307
18.907076 23.810255 -0.021705618 -0.036790326 -0.0089085335 -0.038932588 22.831833 -0.058927726
0.03218647 -0.01169608 31.204237 -15.430729 27.82618 30.145102 0.0035580767 0.019193714
-0.053387642 -29.131254 -0.030456517 -0.021748602 -0.006386823 25.146276 30.738632 -0.026659401
26.886862 -0.032504264 -0.06834727 27.419796 -30.374378 20.853865 27.72442 30.859045
25.923414 -32.196987 -0.061258636 -0.046773165 -0.057406135 -7.8368206 0.030628249 -4.924909
0.027469914 -0.02039805 -0.06607975 22.577673 17.10013 -10.578554 -35.98647 -39.532124
0.0047292425 25.618961 28.29616 -0.015471841 20.9286 -0.047145493 16.874763 -0.072909355
-0.03537833 25.95662 25.668785 -36.602062 -24.385002 -0.028633298 -0.015529718 26.334312
26.15256 25.240494 -0.032707408 1.6732887 6.90949 26.257128 26.649666 0.035922296
0.023841687 27.847635 23.536629 -0.032162104 -0.08689176 -3.5874386 0.044817053 0.017574366
-0.023783924 26.981009 -0.034803227 -0.004058405 0.008626615 27.76157 4.4030437 5.2014017
29.308708 -0.030901873 24.711916 26.802975 28.121546 -0.028598994 -0.05791542 0.05257533
-20.828493 27.863842 0.026604723 22.1854 26.31504 27.216463 32.033825 -0.050091844
0.054370087 27.79247 -0.058813788 0.0047717835 27.661024 -0.04339419 -38.883488 0.026746871
-0.0491012 1.5708365 -35.463634 23.803093 0.003994617 24.575533 0.008813865 26.627756
0.0011498407 15.395483 25.954361 -3.0574715 24.66607 -12.367873 0.03917473 -0.016723774
-0.038969956 27.482883 0.023647526 1.6757627 0.83496624 28.966017 30.951769 26.461918
-29.974922 0.02116578 -0.03491782 -0.022164967 -9.304152 -0.03994111 0.030685453 -0.009576697
33.001934 0.0232068 -0.07877868 27.752691 -0.019370155 -0.052120257 -0.03486322 -0.044442806
27.816576 15.011529 -0.003854585 27.540586 -0.011806805 5.7419214 26.382051 -0.062150482
-0.0652322 30.945486 27.110538 -2.4538724 33.085045 27.179823 0.024878938 -0.021595394
0.56153977 -0.017520871 24.398901 -0.049203 -0.08681511 1.1618863 0.026312329 11.520838
-0.00080136233 -32.431316 0.031874318 24.68124 -0.009239523 26.044006 0.004873675 24.457031
24.31452 -0.030507889 -0.049296286 23.205637 -0.0557973 23.904575 -0.39663583 19.14412
-0.015964217 27.290014 0.051479574 0.016066806 -0.006316656 -1.4024132 -0.0361737 -0.073864646
27.254963 -2.2028797 24.222916 25.001291 21.243567 25.024881 24.24388 0.0118331155
00000000: 4648 04c2 43bc d941 1fae 183d f9ac 68bc
00000010: c572 7bbd e8f2 19c2 c382 3dbd e7e2 d941
00000020: 45bc 98bd ad17 92bd 15c4 01c2 40f4 94bd
00000030: c029 c23c c3f3 d941 9579 aa3c 2074 5f3d
00000040: 025b e741 8a6d 01be 9a2e 1e42 5f33 703d
00000050: 9417 e941 3315 ee3a d2f0 6dbb 6953 a93b
00000060: 376f 8b41 f642 903a 70d6 90bb bfe0 89bc
00000070: d085 0ebf 3bf8 5a41 2a17 e13b d189 cdbc
00000080: 2160 f1bd bab1 bf41 43ed 95c1 445c 96bd
00000090: 91d5 bfbc fdb4 a5bd 0d23 a541 1c08 89bb
000000a0: 8862 c5bd 32c5 2c42 a31d 05bd 4235 64bd
000000b0: ec09 4740 791f 0742 95cd a841 79d8 d941
000000c0: b141 9741 677b be41 fbcf b1bc 74b1 16bd
000000d0: 19f5 11bc c777 1fbd 98a7 b641 335e 71bd
000000e0: f6d5 033d eaa0 3fbc 47a2 f941 44e4 76c1
000000f0: 049c de41 2b29 f141 9f2e 693b 233c 9d3c
00000100: 00ad 5abd cf0c e9c1 f27f f9bc 202a b2bc
00000110: 8e48 d1bb 932b c941 b8e8 f541 d164 dabc
00000120: 4b18 d741 3123 05bd a7f9 8bbd be5b db41
00000130: bafe f2c1 b7d4 a641 9dcb dd41 53df f641
00000140: 2763 cf41 b7c9 00c2 56ea 7abd 3895 3fbd
00000150: b222 6bbd 3cc7 fac0 18e8 fa3c db98 9dc0
00000160: 9608 e13c d019 a7bc d254 87bd 139f b441
00000170: 11cd 8841 c241 29c1 25f2 0fc2 e520 1ec2
00000180: c3f7 9a3b a2f3 cc41 895e e241 9b7d 7dbc
00000190: c66d a741 a21b 41bd 84ff 8641 8051 95bd
000001a0: dee8 10bd 28a7 cf41 ac59 cd41 8368 12c2
000001b0: 7c14 c3c1 6190 eabc 5c70 7ebc acac d241
000001c0: 7138 d141 88ec c941 34f8 05bd 532e d63f
000001d0: 8b1a dd40 990e d241 8432 d541 4223 133d
000001e0: a44f c33c f5c7 de41 044b bc41 69bc 03bd
000001f0: 4ff4 b1bd 9898 65c0 1692 373d 1ef8 8f3c
00000200: 81d6 c2bc 1bd9 d741 d48d 0ebd 5efc 84bb
00000210: a556 0d3c b217 de41 bce5 8c40 e271 a640
00000220: 3c78 ea41 ed25 fdbc 01b2 c541 7e6c d641
00000230: edf8 e041 7048 eabc b838 6dbd 3b59 573d
00000240: c1a0 a6c1 26e9 de41 26f2 d93c b37b b141
00000250: 3485 d241 51bb d941 a322 0042 1b2d 4dbd
00000260: 2bb3 5e3d fb56 de41 bae6 70bd 9f5c 9c3b
00000270: c749 dd41 1bbe 31bd b188 1bc2 411c db3c
00000280: 571e 49bd 2c11 c93f c3da 0dc2 bc6c be41
00000290: 47e5 823b b19a c441 0768 103c a505 d541
000002a0: 40b6 963a e653 7641 88a2 cf41 9dad 43c0
000002b0: 1d54 c541 cfe2 45c1 af75 203d 4c00 89bc
000002c0: f69e 1fbd f2dc db41 75b8 c13c 647f d63f
000002d0: 59c0 553f 67ba e741 399d f741 02b2 d341
000002e0: a4cc efc1 dc63 ad3c fd05 0fbd 4e93 b5bc
000002f0: cedd 14c1 4a99 23bd 0f60 fb3c 94e7 1cbc
00000300: fb01 0442 301c be3c b756 a1bd 8305 de41
00000310: 29ae 9ebc 0d7c 55bd bccc 0ebd a909 36bd
00000320: 5988 de41 392f 7041 359d 7cbb 1f53 dc41
00000330: 5471 41bc d2bd b740 710e d341 8191 7ebd
00000340: 7698 85bd 5b90 f741 62e2 d841 3f0c 1dc0
00000350: 1657 0442 4770 d941 eace cb3c d3e8 b0bc
00000360: 12c1 0f3f ee87 8fbc f330 c341 1689 49bd
00000370: 1fcc b1bd b1b8 943f f48c d73c 5a55 3841
00000380: 8412 52ba abb9 01c2 a58e 023d 2e73 c541
00000390: 5e61 17bc 205a d041 59b3 9f3b 00a8 c341
000003a0: 2384 c241 aeeb f9bc e7ea 49bd 25a5 b941
000003b0: b68b 64bd 923c bf41 da13 cbbe 2827 9941
000003c0: 64c7 82bc f351 da41 3fdc 523d 899e 833c
000003d0: f3fb cebb 4782 b3bf e02a 14bd 5946 97bd
000003e0: 2a0a da41 fbfb 0cc0 88c8 c141 a502 c841
000003f0: d3f2 a941 f532 c841 77f3 c141 afdf 413c

6.weight f4 [4, 256]
-0.49392718 0.35973823 -0.030807381 -0.001982862 -0.054965958 -0.8080493 -0.04352084 0.33665314
-0.036221426 0.050540395 -2.2867036 -0.055375405 -0.049637537 0.41789255 0.016199995 -0.021631308
0.40092152 -0.008456597 2.4138308 0.016388703 -7.724984 -0.0094737755 0.00076325214 -0.045237113
-0.04766134 0.031669952 0.014868818 0.050284795 1.085724 1.9192755 0.02916535 4.6071822e-05
0.046370078 0.18019105 -1.0433431 -0.0017305664 -0.020808628 -0.017915713 0.09041797 0.0021925927
-0.031466007 7.7459517 0.006697537 0.059122182 0.99471223 2.7984004 0.40613636 0.35672542
0.123019814 0.08641616 -0.046914533 0.047531225 -0.0035740936 -0.03719268 3.9451742 0.042875376
-0.02744827 -0.04179021 0.5187568 -0.71389306 0.37169272 0.89473087 -0.04884304 -0.034146827
-0.02441196 -0.62939924 -0.04425411 0.013096503 -0.04131224 4.7916665 0.52542025 -0.022806307
0.36745712 0.0088848015 0.03737525 0.42311442 1.2917924 0.5022389 0.3920963 2.025926
-4.7968903 -0.84163445 0.0040270183 0.06332291 0.02154576 -5.73833 -0.05748874 -5.6258636
-0.03358223 0.054613676 -0.045565996 0.18234517 -0.2935767 -0.025030192 0.26689544 -0.9924389
-0.008118784 0.32125154 0.9247164 0.007582817 0.16310684 0.0027781622 1.1925279 -0.0015365367
-0.006923017 0.31734347 0.3685584 -0.59378415 0.8194381 0.01090721 -0.04331615 0.28176945
0.33413935 0.2918999 0.04777561 -0.8371145 1.6831186 0.31846404 0.30148622 0.032659188
0.0007613728 -0.17499352 0.225196 -0.00817846 -0.040896986 1.3665851 -0.017696254 0.03415467
-0.007759818 0.41622287 0.014429588 -0.027012926 -0.002105577 0.40880522 10.937733 -0.36321586
0.15007736 -0.01778744 -0.2908117 0.37649006 0.43780416 -0.0016905086 0.021266405 -0.0037589315
1.4033267 0.4067434 -0.029576255 0.8240115 0.2926337 2.2994654 0.7490832 0.0048318994
-0.0029623823 0.41266027 0.00041829768 0.00541043 1.5146478 -0.027239814 -2.1576133 0.032852937
-0.029000686 0.6552096 -1.4971987 0.10879203 0.013535566 0.20107695 0.031896643 0.059274603
-0.0004806593 0.20998697 0.32643557 0.66797125 0.35173172 -0.43731523 -0.0099110445 -0.0411005
-0.039610617 0.33819288 -0.04302284 -0.5650902 -2.710573 0.7494646 4.0315423 0.357587
2.0323448 -0.008660718 0.019073835 0.031814978 -5.63278 -0.0064879246 0.0439789 -0.024633108
3.5584679 -0.03759335 0.04734261 -2.9017153 -0.033408772 -0.008427565 -0.045977976 0.02348795
0.37076935 -0.61492705 -0.011647334 0.39191216 -0.017328024 1.1727408 0.5431138 0.024809154
-0.016811118 4.892944 0.38920096 -0.62106264 -0.617604 0.35518113 -0.008483588 0.02584188
-2.019246 0.0028367927 0.2500262 0.038644362 0.0037548237 1.2288328 0.002436844 3.6352656
-0.042570554 -0.16753349 -0.055593673 0.16942498 0.037629403 0.308144 -0.0040851007 0.2735778
0.22834432 0.05673278 -0.04702897 0.093821965 -0.029298097 0.14979775 -0.50450677 0.1237959
-0.035540946 0.28885412 0.006164065 0.041523527 -0.062443577 -0.16266133 0.028131535 -0.026073957
0.3513858 -0.87632746 0.19051012 -0.13144399 0.08194524 0.24165653 0.23192929 0.007031079
00000000: 06e4 fcbe 9c2f b83e c35f fcbc e7f2 01bb
00000010: fc23 61bd 52dc 4ebf e942 32bd cd5d ac3e
00000020: eb5c 14bd 7203 4f3d 5a59 12c0 52d1 62bd
00000030: bb50 4bbd 03f6 d53e dab5 843c 2434 b1bc
00000040: 9645 cd3e 8a8d 0abc 347c 1a40 9a41 863c
00000050: 1233 f7c0 e537 1bbc fc14 483a 8d4a 39bd
00000060: 8a38 43bd 5ab8 013d 589c 733c 6ef7 4d3d
00000070: 01f9 8a3f d2aa f53f 2cec ee3c 3e3d 4138
00000080: 8dee 3d3d 0184 383e 448c 85bf 2cd4 e2ba
00000090: db76 aabc f9c3 92bc 0f2d b93d 9ab1 0f3b
000000a0: 80e2 00bd d6de f740 0377 db3b 1a2a 723d
000000b0: 76a5 7e3f fe18 3340 1bf1 cf3e b7a4 b63e
000000c0: d0f1 fb3d f5fa b03d 7429 40bd 1ab0 423d
000000d0: 573b 6abb 5a57 18bd bc7d 7c40 179e 2f3d
000000e0: 32db e0bc 362c 2bbd 3fcd 043f b2c1 36bf
000000f0: 824e be3e 150d 653f a40f 48bd 8bdd 0bbd
00000100: 97fb c7bc 4f20 21bf cc43 35bd b792 563c
00000110: 0637 29bd 5555 9940 f181 063f 4bd4 babc
00000120: 5723 bc3e 8f91 113c ca16 193d 74a2 d83e
00000130: 7459 a53f bb92 003f d9c0 c83e c6a8 0140
00000140: 2080 99c0 5b75 57bf 14f5 833b 71af 813d
00000150: bc80 b03c 66a0 b7c0 5079 6bbd 1307 b4c0
00000160: 858d 09bd 97b2 5f3d 69a3 3abd b1b8 3a3e
00000170: af4f 96be 1e0c cdbc 85a6 883e 7a10 7ebf
00000180: a604 05bc 157b a43e 37ba 6c3f 4879 f83b
00000190: 7b05 273e d411 363b c1a4 983f 9e65 c9ba
000001a0: 7ada e2bb d87a a23e b0b3 bc3e 3d02 18bf
000001b0: b2c6 513f 28b4 323c 466c 31bd 1644 903e
000001c0: 5014 ab3e e773 953e 5cb0 433d 234d 56bf
000001d0: 6e70 d73f b80d a33e 675c 9a3e a4c5 053d
000001e0: dd96 473a 8031 33be c899 663e f3fe 05bc
000001f0: 9983 27bd 43ec ae3f bcf7 90bc c4e5 0b3d
00000200: 1246 febb 2a1b d53e 146a 6c3c 364a ddbc
00000210: b8fd 09bb eb4e d13e f400 2f41 6ef7 b9be
00000220: e1ad 193e f7b6 91bc 45e5 94be 4ec3 c03e
00000230: de27 e03e 0e94 ddba e236 ae3c 6858 76bb
00000240: 36a0 b33f ac40 d03e e749 f2bc 6bf2 523f
00000250: 16d4 953e 712a 1340 ebc3 3f3f e954 9e3b
00000260: 8724 42bb 3548 d33e f74e db39 fa49 b13b
00000270: fbdf c13f 0826 dfbc 5616 0ac0 cd90 063d
00000280: d992 edbc d1bb 273f 35a4 bfbf 5bce de3d
00000290: 47c4 5d3c 1ee7 4d3e 0ea6 023d edc9 723d
000002a0: 0001 fcb9 d306 573e 9022 a73e 2a00 2b3f
000002b0: 2e16 b43e c8e7 dfbe ef61 22bc ff58 28bd
000002c0: be3e 22bd 9e27 ad3e b838 30bd c0a9 10bf
000002d0: 077a 2dc0 e9dc 3f3f 6502 8140 a515 b73e
000002e0: f011 0240 afe5 0dbc bb40 9c3c 6c50 023d
000002f0: bc3f b4c0 a898 d4bb 3823 343d 5fcb c9bc
00000300: f0bd 6340 7cfb 19bd 53ea 413d b4b5 39c0
00000310: a3d7 08bd c513 0abc 6753 3cbd cd69 c03c
00000320: 7bd5 bd3e dc6b 1dbf 76d4 3ebc b6a8 c83e
00000330: 80f3 8dbc 5f1c 963f 8209 0b3f 913c cb3c
00000340: 78b7 89bc ff92 9c40 5945 c73e f6fd 1ebf
00000350: 4c1b 1ebf 4dda b53e bffe 0abc 5ab2 d33c
00000360: 543b 01c0 7ce9 393b 6f03 803e 8d49 1e3d
00000370: 7d13 763b 654a 9d3f 75b3 1f3b 31a8 6840
00000380: 765e 2ebd e68d 2bbe 31b6 63bd be7d 2d3e
00000390: 4a21 1a3d 0dc5 9d3e 4fdc 85bb 6412 8c3e
000003a0: 18d3 693e a260 683d 73a1 40bd bb25 c03d
000003b0: 9002 f0bc 9564 193e 5b27 01bf b488 fd3d
000003c0: 6293 11bd b0e4 933e edfb c93b 9314 2a3d
000003d0: d6c4 7fbd b190 26be 1b74 e63c 0d99 d5bc
000003e0: d7e8 b33e ff56 60bf 1615 433e 4199 06be
000003f0: e8d2 a73d cf74 773e df7e 6d3e f764 e63b

6.bias f4 [4]
47.907196 37.89966 12.530309 22.515343
00000000: f8a0 3f42 4099 1742 257c 4841 6c1f b441
